trifinger_rl_example/policies/lift.pt (torch, 566115 bytes, 13 tensors)

weight f4 [256, 75]
-0.15020874 -0.03822807 -0.04705792 0.14072943 0.10223646 0.028154766 -0.22215827 0.10496769
-0.15504402 0.080148354 0.05908594 0.03159894 0.014516135 0.063093245 0.111557946 0.07087145
0.07553691 -0.008923643 -0.28422847 -0.01603831 0.077492654 -0.25336644 -0.44012666 0.24755728
-0.2359265 0.12627925 -0.04266674 -0.31350943 -0.36602882 0.0576547 0.24992596 0.39550892
-0.15478237 0.14880238 -0.062254436 0.13449684 0.30763808 0.33941218 -0.10840993 0.3355523
-0.0943755 0.1330266 0.28102058 -0.06995975 0.061390977 0.22689159 0.36768034 -0.17183697
0.24918494 -0.14387631 0.01752999 0.18037939 0.36276567 -0.14879908 -0.15430582 -0.26009223
-0.009566744 -0.31404254 0.032485463 -0.06758328 -0.29698223 -0.38289884 0.11848359 -0.25809905
0.00074200786 -0.09210543 -0.15251757 -0.08100882 -0.056672752 0.05355727 -0.11449546 -0.042179737
0.02094818 -0.10377911 -0.0109637985 0.5517473 -0.13701952 -0.5868071 -0.32141936 0.23250785
0.022967063 0.04774036 -0.42655453 -0.1568852 0.046636455 -0.064487986 0.040893897 -0.13662761
-0.0329018 -0.065605834 -0.12363426 -0.09594183 -0.16691029 0.17390285 0.02979931 0.042616997
0.19792877 0.18818572 -0.12983409 0.15002 0.1659125 -0.05014712 0.07230031 0.18447709
-0.09939594 0.16288942 0.20640557 -0.07316584 0.13621603 0.19486907 -0.05562941 0.26794547
0.17381227 -0.08620153 0.22979829 0.10847306 -0.13665386 -0.07560964 0.023332352 0.029645557
-6.0009384e-05 0.007584328 0.107728265 0.061659414 -0.026007842 -0.0067322524 -0.05138578 0.023042385
0.13416333 -0.1307196 -0.012494502 0.04919523 0.0010458905 -0.012963243 0.07607077 -0.12320865
-0.013779605 0.05904369 -0.038501218 0.04604298 0.074235216 -0.32164773 0.16478191 0.48885223
-0.07592835 -0.051643867 0.26818785 -0.17197445 0.020798268 0.2904902 -0.4177348 -0.704248
-0.2060717 0.17333975 0.022814225 0.20319565 -0.2604655 0.42072257 0.16556151 -0.089613356
0.20104977 -0.060915217 0.040021382 -0.027576769 0.05807697 0.032969814 0.010491121 0.18210599
0.015596893 0.23180579 -0.019403998 -0.07350823 0.21622603 0.058169078 0.07902114 0.1296952
-0.023559645 -0.17284207 0.11410445 -0.005013424 0.2457519 0.20186722 -0.035727844 -0.009037177
0.2021869 -0.0024028786 0.21478158 0.15316615 0.023911117 0.084366314 0.008522986 -0.07430858
-0.014963752 -0.17930844 0.008668483 0.0018957253 -0.13641815 0.028795883 0.059299137 -0.04946649
-0.020801099 0.035236433 -0.08116032 0.031502847 -0.06294271 -0.17359647 0.004246904 0.104689516
0.01582674 0.06238865 -0.20310725 0.13472977 -0.0013250496 -0.08266613 0.032955498 0.057105426
0.24772106 -0.28862283 0.10053124 -0.17068616 -8.943643e-06 0.052440047 0.16438703 0.2714926
-0.13885637 0.09964416 -0.06985968 0.05608125 0.76821613 0.056506347 -0.1931881 -0.1866999
0.13066731 -0.05478519 0.18823001 -0.44634178 -0.1536225 -0.0019041826 0.023116851 0.075557575
-0.06120763 0.1908153 -0.074411996 -0.07827235 0.028007733 -0.10323023 0.059128672 0.060465526
0.017249892 0.023789542 -0.31095666 0.00579915 -0.13504183 -0.34819388 -0.057598922 -0.06310225
00000000: 52d0 19be 0995 1cbd cebf 40bd 601b 103e
00000010: 5961 d13d d3a4 e63c 757d 63be 4df9 d63d
00000020: dcc3 1ebe d224 a43d 1904 723d e46d 013d
00000030: 15d5 6d3c 0837 813d 7e78 e43d 0d25 913d
00000040: 18b3 9a3d 7934 12bc 6586 91be c662 83bc
00000050: 78b4 9e3d 3fb9 81be 4858 e1be a87f 7d3e
00000060: b796 71be 594f 013e 52c3 2ebd 4f84 a0be
00000070: 2168 bbbe 5627 6c3d 97ec 7f3e 2580 ca3e
00000080: 457f 1ebe a75f 183e 82fe 7ebd 8ab9 093e
00000090: bd82 9d3e 6fc7 ad3e 0606 debd 83cd ab3e
000000a0: f147 c1bd 2038 083e eee1 8f3e 0f47 8fbd
000000b0: 1b75 7b3d 4556 683e 9940 bc3e 08f6 2fbe
000000c0: 562a 7f3e 5054 13be 0e9b 8f3c 60b5 383e
000000d0: 6cbc b93e c95e 18be 5802 1ebe cf2a 85be
000000e0: d5bd 1cbc 2fca a0be 7a0f 053d 1a69 8abd
000000f0: 0e0e 98be 510b c4be 86a7 f23d 8f25 84be
00000100: 4e83 423a c6a1 bcbd 912d 1cbe f4e7 a5bd
00000110: b021 68bd de5e 5b3d 997c eabd a9c4 2cbd
00000120: 859b ab3c 248a d4bd 81a1 33bc 503f 0d3f
00000130: d84e 0cbe fd38 16bf 1491 a4be 8a16 6e3e
00000140: 6c25 bc3c 658b 433d 5b65 dabe 84a6 20be
00000150: de05 3f3d 4712 84bd 5c80 273d 1ce8 0bbe
00000160: 0ac4 06bd 5a5c 86bd f533 fdbd 267d c4bd
00000170: 88ea 2abe 9713 323e af1d f43c 298f 2e3d
00000180: d7ad 4a3e c2b3 403e 3af3 04be d89e 193e
00000190: f7e4 293e 1167 4dbd 2f12 943d 90e7 3c3e
000001a0: 1990 cbbd 7ccc 263e fb5b 533e f9d7 95bd
000001b0: 377c 0b3e c28b 473e aadb 63bd 2630 893e
000001c0: d8fb 313e 6e8a b0bd 3e50 6b3e 2027 de3d
000001d0: fdee 0bbe 3ad9 9abd 7d23 bf3c 3ddb f23c
000001e0: 96b2 7bb8 f485 f83b a3a0 dc3d 958e 7c3d
000001f0: 660e d5bc 3a9a dcbb e579 52bd 62c3 bc3c
00000200: 1d62 093e 5cdb 05be bdb5 4cbc f080 493d
00000210: 4316 893a c863 54bc feca 9b3d d154 fcbd
00000220: dac3 61bc ccd7 713d 74b3 1dbd 9097 3c3d
00000230: a208 983d 03af a4be 97bc 283e d74a fa3e
00000240: 5380 9bbd 8588 53bd eb4f 893e 121a 30be
00000250: 2161 aa3c 22bb 943e 56e1 d5be 9949 34bf
00000260: 7604 53be fa7f 313e e6e4 ba3c 8512 503e
00000270: bc5b 85be f368 d73e f588 293e 3587 b7bd
00000280: fedf 4d3e 3c82 79bd 76ed 233d ade8 e1bc
00000290: 1ee2 6d3d 5b0b 073d f3e2 2b3c fe79 3a3e
000002a0: 1c8a 7f3c 7f5e 6d3e 22f5 9ebc 7c8b 96bd
000002b0: 5b6a 5d3e b342 6e3d d6d5 a13d d2ce 043e
000002c0: 2800 c1bc 83fd 30be 98af e93d a647 a4bb
000002d0: 63a6 7b3e 48b6 4e3e 5c57 12bd ab10 14bc
000002e0: 150a 4f3e 9d79 1dbb b4ef 5b3e 96d7 1c3e
000002f0: 3fe1 c33c 3fc8 ac3d ffa3 0b3c 192f 98bd
00000300: 862a 75bc a29c 37be 4106 0e3c fc79 f83a
00000310: 33b1 0bbe 58e5 eb3c a7e3 723d 609d 4abd
00000320: 1167 aabc 1454 103d 6237 a6bd 2109 013d
00000330: 1ce8 80bd 46c3 31be 9d29 8b3b 7567 d63d
00000340: 14a7 813c 3e8b 7f3d 59fb 4fbe 9af6 093e
00000350: 49ad adba dc4c a9bd 58fc 063d 61e7 693d
00000360: 97aa 7d3e 5fc6 93be 53e3 cd3d 5ac8 2ebe
00000370: a70c 16b7 60cb 563d 1355 283e 1401 8b3e
00000380: 5d30 0ebe 3d12 cc3d 9812 8fbd 74b5 653d
00000390: d0a9 443f 3373 673d 1ad3 45be 422e 3fbe
000003a0: a7cd 053e 6f66 60bd 5ebf 403e e986 e4be
000003b0: 374f 1dbe c495 f9ba 8d5f bd3c eebd 9a3d
000003c0: dab4 7abd 1665 433e 5165 98bd 414d a0bd
000003d0: 7970 e53c 5f6a d3bd e830 723d b3aa 773d
000003e0: a54f 8d3c 49e2 c23c b635 9fbe cc06 be3b
000003f0: 6848 0abe 7846 b2be d9ec 6bbd c13b 81bd

bias f4 [256]
-0.26453435 -0.54036146 -0.16904268 0.27806172 -0.01707824 -0.5217446 -0.22745529 0.11075866
-0.11472291 0.23340467 -0.036475316 -0.09615804 -0.16999435 -0.12735121 -0.2585571 -0.45137358
0.06296029 -0.14854263 -0.40152436 0.32403275 -0.3096848 -0.22580463 -0.06834313 -0.06110334
-0.3156815 0.10126678 0.19532248 -0.5360717 0.015604496 0.08202955 -0.1034276 -0.3121239
-0.22954032 -0.3156416 -0.06483367 -0.30059937 0.18583393 0.09773136 -0.257453 0.093663454
-0.15210809 -0.3594181 -0.26272827 -0.3895774 -0.15787895 0.19059128 -0.025065392 -0.1803838
-0.48078442 0.062408652 0.25256118 -0.09956068 0.3315717 -0.11573804 -0.419561 -0.42005852
-0.33542252 0.11973938 0.10251949 0.011275894 0.29504636 -0.12045898 0.12203382 -0.11077809
-0.39578924 0.53159964 0.20409939 -0.056092106 -0.320478 -0.002192518 0.20828094 0.32558632
-0.61770517 0.014620504 -0.14243172 -0.4378565 -0.5939488 -0.2100096 0.38967937 0.3126741
0.3086656 0.113446854 0.02650091 0.15499148 -0.05813364 -0.539951 -0.42635792 -0.65670455
0.22945128 -0.290343 -0.22706647 0.25404045 -0.08182284 0.03788733 -0.17485222 0.042836837
0.004184227 -0.5934809 -0.67770934 -0.33655345 -0.011357207 0.20944275 0.18539113 -0.40435988
-0.04171209 0.012757079 0.22141735 -0.18940935 -0.25774267 -0.24719977 -0.023603894 0.32069182
-0.18654911 0.13021487 -0.58368856 -0.34959394 0.39445606 -0.35871422 -0.1455708 -0.24210392
0.114792645 0.30632165 -0.4993075 0.08836338 0.38075012 -0.19360416 -0.2869127 -0.09749037
0.06279793 -0.05121281 -0.22201529 -0.0035869922 0.447836 -0.06520969 -0.008085227 -0.4540405
-0.2496349 -0.18898307 -0.28169492 -0.0856065 0.058615454 -0.067189045 -0.031222 -0.44455594
-0.29730788 -0.145507 -0.11562815 -0.27920443 -0.44524348 0.053992487 -0.05716397 -0.3890764
-0.078894414 0.21930069 -0.04233937 0.111233525 0.07930109 0.019817185 0.14532933 -0.12225296
-0.23799801 -0.12500069 0.01888867 0.1837825 -0.30854136 0.15257047 -0.20082697 -0.13215211
-0.13468345 0.03037759 -0.3419965 -0.55464214 0.22989526 -0.01936442 0.008980954 -0.26560736
0.105337314 -0.31959364 -0.8227905 -0.054325014 -0.27768397 0.0408313 0.10653303 -0.26787332
-0.87934333 -0.04215419 -0.25062227 -0.14844774 -0.0974127 -0.19202165 0.05019063 0.13198285
-0.1967091 0.20810816 0.30710953 0.1864586 0.10383256 0.11228017 -0.10335341 -0.24054237
-0.80952656 0.19316505 -0.0026679195 0.3218353 -0.275067 -0.06629676 -0.1607053 0.07438858
0.35335943 0.11394137 -0.42738447 -0.10700944 0.3241176 -0.23992725 -0.08833308 -0.46926573
0.11355432 0.0709269 -0.21581131 0.0077034878 0.5490425 0.71200633 0.019987186 -0.036220368
-0.42566237 -0.20367818 0.20043315 -0.26225546 -0.0927644 0.08832656 -0.1386073 0.02460184
-0.809442 -0.53626764 0.19018424 -0.042050783 0.5324509 -0.12911549 0.175048 -0.3127
-0.51448745 -0.5134608 -0.040659018 -0.38387188 0.14808372 -0.34985912 -0.5060395 -0.09374882
-0.04782043 0.33041346 0.29785353 0.1365181 -0.4754902 0.03795659 -0.3870856 -0.24311516
00000000: 0c71 87be 2155 0abf 8619 2dbe 1b5e 8e3e
00000010: aae7 8bbc 0e91 05bf 0aea 68be 70d5 e23d
00000020: d8f3 eabd a201 6f3e 2467 15bd 82ee c4bd
00000030: 0013 2ebe 5b68 02be 9961 84be 701a e7be
00000040: 53f1 803d 8f1b 18be 9a94 cdbe 9fe7 a53e
00000050: 028f 9ebe 5439 67be 7cf7 8bbd 7f47 7abd
00000060: 01a1 a1be f564 cf3d 9e02 483e ff3b 09bf
00000070: 00aa 7f3c 1cff a73d d9d1 d3bd b4ce 9fbe
00000080: 9e0c 6bbe c79b a1be 84c7 84bd 29e8 99be
00000090: 404b 3e3e 6127 c83d e1d0 83be a0d2 bf3d
000000a0: 39c2 1bbe a605 b8be 5284 86be b076 c7be
000000b0: 05ab 21be 5c2a 433e f055 cdbc 88b6 38be
000000c0: 6029 f6be 37a0 7f3d b34f 813e 78e6 cbbd
000000d0: c4c3 a93e 1108 edbd b3d0 d6be e911 d7be
000000e0: 80bc abbe ec39 f53d bdf5 d13d 87be 383c
000000f0: 5110 973e 33b3 f6bd deec f93d a0df e2bd
00000100: e3a4 cabe ea16 083f 6eff 503e d6c0 65bd
00000110: b115 a4be 59b0 0fbb 9947 553e 40b3 a63e
00000120: ed21 1ebf d78a 6f3c 9fd9 11be ba2e e0be
00000130: 070d 18bf c20c 57be 0e84 c73e d216 a03e
00000140: 6b09 9e3e d356 e83d 7018 d93c 16b6 1e3e
00000150: 8a1d 6ebd 3b3a 0abf 964b dabe ca1d 28bf
00000160: 47f5 6a3e d6a7 94be 1d84 68be 9711 823e
00000170: bc92 a7bd bf2f 1b3d 760c 33be ae75 2f3d
00000180: d71b 893b 5dee 17bf 5c7e 2dbf bc50 acbe
00000190: 9413 3abc 2978 563e 2cd7 3d3e 4208 cfbe
000001a0: 4cda 2abd 1103 513c 3bbb 623e 86f4 41be
000001b0: d9f6 83be f021 7dbe f45c c1bc b831 a43e
000001c0: bb06 3fbe 0c57 053e 9d6c 15bf fafd b2be
000001d0: 25f6 c93e 64a9 b7be 8310 15be 17ea 77be
000001e0: 6818 eb3d 31d6 9c3e 3ca5 ffbe dcf7 b43d
000001f0: aef1 c23e 2b40 46be 39e6 92be 08a9 c7bd
00000200: 339c 803d 86c4 51bd fa57 63be be13 6bbb
00000210: c34a e53e a88c 85bd e677 04bc ff77 e8be
00000220: 4ba0 7fbe c784 41be 513a 90be 7652 afbd
00000230: c216 703d 699a 89bd 48c5 ffbc d69c e3be
00000240: bd38 98be c9ff 14be 74ce ecbd e2f3 8ebe
00000250: f4f6 e3be 3a27 5d3d c424 6abd 0635 c7be
00000260: 6593 a1bd 5c90 603e 0c6c 2dbd 67ce e33d
00000270: 9c68 a23d a657 a23c 36d1 143e c35f fabd
00000280: c0b5 73be 2e00 00be 69bc 9a3c 7b31 3c3e
00000290: 22f9 9dbe 6f3b 1c3e 96a5 4dbe e252 07be
000002a0: 75ea 09be 6cda f83c 2a1a afbe 07fd 0dbf
000002b0: aa69 6b3e 22a2 9ebc da24 133c b0fd 87be
000002c0: 17bb d73d c7a1 a3be 66a2 52bf e883 5ebd
000002d0: 982c 8ebe b93e 273d fd2d da3d b126 89be
000002e0: a51c 61bf dfa9 2cbd 9051 80be af02 18be
000002f0: 4f80 c7bd 53a1 44be b194 4d3d 8326 073e
00000300: 1c6e 49be 4e1a 553e 763d 9d3e 01ef 3e3e
00000310: 2aa6 d43d 25f3 e53d f4aa d3bd bd50 76be
00000320: 223d 4fbf 0fcd 453e 43d8 2ebb 99c7 a43e
00000330: 95d5 8cbe 99c6 87bd ee8f 24be 0a59 983d
00000340: 87eb b43e 185a e93d 23d2 dabe c427 dbbd
00000350: bef2 a53e 7daf 75be f9e7 b4bd 9943 f0be
00000360: 2b8f e83d 1f42 913d a4fd 5cbe 8a6d fc3b
00000370: 0d8e 0c3f 0c46 363f 2bbc a33c cf5b 14bd
00000380: 6bf0 d9be 0391 50be 593e 4d3e 5946 86be
00000390: 43fb bdbd 8ee4 b43d 12ef 0dbe cc89 c93c
000003a0: 9737 4fbf d648 09bf a8bf 423e 713d 2cbd
000003b0: b44e 083f da36 04be c83f 333e 371a a0be
000003c0: 73b5 03bf 2b72 03bf 128a 26bd db8a c4be
000003d0: 42a3 173e bc20 b3be ce8b 01bf 62ff bfbd
000003e0: 5bdf 43bd f42b a93e 4280 983e 67cb 0b3e
000003f0: 7473 f3be 5f78 1b3d 1530 c6be 2ef3 78be

weight f4 [256, 256]
0.11723742 -0.3422688 -0.1559815 -0.040122785 0.019668208 0.1821397 -0.061773166 0.27009094
-0.034429338 0.4518372 0.1132914 -0.32764244 0.22679505 -0.12805887 0.02327509 -0.13936308
0.14230601 0.051917963 0.0146533195 -0.4236662 0.2226315 -0.07239001 -0.05419177 -0.40524
0.1493373 -0.116758734 0.0045809764 -0.015468965 0.092110805 -0.13760543 -0.17753862 -0.0035456526
-0.19356859 0.20175616 -0.044301428 0.18556578 -0.0062325993 0.14665459 0.011239893 -0.08631757
0.16944785 -0.13598435 -0.076091126 -0.039343864 -0.008554888 -0.016909054 -0.007247806 -0.30635604
0.051734738 0.13703069 -0.06734623 0.069584355 -0.13105567 -0.11332741 -0.13319828 -0.019700227
0.091185756 0.0025214113 0.05135708 -0.22297734 -0.008583347 -0.08306718 0.08191031 -0.010538848
-0.02688946 0.11670687 -0.32848358 0.304666 0.06749379 0.24981628 0.18279724 -0.008800016
0.06657462 0.09185924 0.0018119554 0.12541696 0.07985431 0.0073584137 -0.002798688 -0.20142178
0.10180693 -0.07141785 0.27080867 0.15871122 0.14959298 0.061456807 -0.27631143 0.07303097
-0.053195074 0.1532398 0.12563626 -0.080017276 0.18700092 -0.2568727 -0.15589586 -0.2675077
0.12386368 0.13395508 0.009592497 0.072567455 0.09597334 -0.18353143 -0.022193437 0.1759764
0.0135651985 0.02755206 -0.19433615 -0.08037139 0.0015056499 -0.14756493 0.020703293 0.07599045
-0.3120711 -0.1008026 -0.16990283 0.091012284 -0.050964873 -0.05160381 0.14867568 -0.2190522
0.015091594 -0.25656262 -0.031149216 -0.27881908 0.14304788 -0.06153028 0.06520152 0.029374782
-0.12186069 -0.07496532 -0.24724935 0.029871644 -0.26766044 0.079456024 -0.52974504 0.16759068
0.09160711 0.14875634 0.0025114685 0.05257895 -0.112983845 -0.071687475 0.04509255 -0.010512266
-0.04461596 0.14327417 -0.008589952 -0.18041661 0.035599165 -0.25856784 0.20964168 0.032913014
-0.070040464 -0.0017337655 -0.14970745 0.31797692 -0.0035466633 0.085019805 -0.19660024 -0.04037741
0.08422663 -0.03674477 0.1447378 -0.12671721 0.02212282 0.16419598 -0.06312807 -0.032509826
-0.027907223 0.2813165 0.07307052 0.011561504 -0.09458318 0.011943765 -0.2978824 -0.077390574
0.18342422 -0.08797875 0.5297496 -0.2864348 -0.19412468 -0.15153784 0.061586343 -0.27976403
0.18591635 -0.11510812 -0.35170692 0.057624474 -0.09467459 -0.033860683 0.10555317 -0.32773054
0.32970706 -0.12666745 -0.05275322 -0.38024035 -0.09287995 -0.3692722 0.16495627 0.04708608
-0.22973664 0.092639804 -0.0028669315 -0.11319154 -0.041708976 -0.27205825 0.09144106 -0.2956667
-0.3182681 -0.026604623 0.2606131 -0.034717485 -0.20167324 0.06362281 0.16660284 0.107450694
-0.11828334 -0.1989069 0.20556441 -0.14540094 0.2012916 0.06297408 0.05410687 0.0100223655
0.1406695 0.036065087 -0.11654994 0.110912204 0.11758333 -0.49350676 0.07348171 -0.13213421
0.16695343 0.061540395 -0.08962537 0.244314 0.101466715 0.083387986 0.017410638 0.1677367
-0.021376709 0.10599754 -0.13621168 -0.19535437 -0.060426615 0.026087943 0.043534856 0.10098152
-0.40836808 0.14762557 -0.020102447 0.009425729 -0.058010332 -0.066936724 0.06680702 -0.1141038
00000000: 2c1a f03d db3d afbe 9db9 1fbe ca57 24bd
00000010: 391f a13c d482 3a3e dc05 7dbd 5c49 8a3e
00000020: c705 0dbd 3557 e73e 5205 e83d c0c0 a7be
00000030: f63c 683e dd21 03be 67ab be3c 32b5 0ebe
00000040: abb8 113e eea7 543d 7a14 703c c7ea d8be
00000050: 83f9 633e 3741 94bd 30f8 5dbd 9e7b cfbe
00000060: e1eb 183e 341f efbd 041c 963b 8b71 7dbc
00000070: 97a4 bc3d 70e8 0cbe afcc 35be 2e5e 68bb
00000080: d836 46be 2b99 4e3e 6a75 35bd f504 3e3e
00000090: d53a ccbb 9f2c 163e 8727 383c 44c7 b0bd
000000a0: bd83 2d3e 7b3f 0bbe aad5 9bbd 0827 21bd
000000b0: cd29 0cbc db84 8abc 017f edbb b3da 9cbe
000000c0: cee7 533d c651 0c3e d2ec 89bd 3e82 8e3d
000000d0: 7533 06be 3318 e8bd 2165 08be 5f62 a1bc
000000e0: 99bf ba3d 433e 253b cd5b 523d 2c54 64be
000000f0: 2ba1 0cbc 201f aabd 98c0 a73d 22ab 2cbc
00000100: 4947 dcbc 0304 ef3d 002f a8be 2ffd 9b3e
00000110: 2f3a 8a3d d7cf 7f3e 332f 3b3e f12d 10bc
00000120: 4658 883d b220 bc3d 227f ed3a 4e6d 003e
00000130: a88a a33d d91e f13b 316a 37bb 8341 4ebe
00000140: 2780 d03d 8643 92bd 6fa7 8a3e 3285 223e
00000150: e72e 193e 22ba 7b3d b178 8dbe 4391 953d
00000160: 14e3 59bd e5ea 1c3e cba6 003e 19e0 a3bd
00000170: 2b7d 3f3e d284 83be 2aa3 1fbe c5f6 88be
00000180: 3eac fd3d 852b 093e d929 1d3c 3f9e 943d
00000190: ac8d c43d aaef 3bbe 03cf b5bc 2833 343e
000001a0: 9140 5e3c dcb4 e13c 0e00 47be c199 a4bd
000001b0: 3a59 c53a 431b 17be f499 a93c e2a0 9b3d
000001c0: c9c7 9fbe 9871 cebd 02fb 2dbe a664 ba3d
000001d0: 8bc0 50bd 845e 53bd 703e 183e 384f 60be
000001e0: bc42 773c 2d5c 83be a42c ffbc 60c1 8ebe
000001f0: 257b 123e 2d07 7cbd 6088 853d 62a3 f03c
00000200: 1992 f9bd 6b87 99bd ef2e 7dbe 61b5 f43c
00000210: ca0a 89be d7b9 a23d 5f9d 07bf e49c 2b3e
00000220: 829c bb3d 9553 183e 7397 243b 065d 573d
00000230: 1364 e7bd e2d0 92bd f7b2 383d a43b 2cbc
00000240: 3abf 36bd 77b6 123e dfbc 0cbc 22bf 38be
00000250: 6ed0 113d 0163 84be 4fac 563e cccf 063d
00000260: 6071 8fbd 843f e3ba e94c 19be dfcd a23e
00000270: 236f 68bb dd1e ae3d 9351 49be c862 25bd
00000280: 037f ac3d af81 16bd 2536 143e 28c2 01be
00000290: eb3a b53c fe22 283e 4a49 81bd 0629 05bd
000002a0: b09d e4bc b708 903e ffa5 953d 766c 3d3c
000002b0: d4b4 c1bd c8af 433c 0b84 98be f37e 9ebd
000002c0: 8fd3 3b3e 342e b4bd ab9d 073f 95a7 92be
000002d0: 9fc8 46be bc2c 1bbe f641 7c3d 3b3d 8fbe
000002e0: db60 3e3e cebd ebbd ee12 b4be a407 6c3d
000002f0: c0e4 c1bd 80b1 0abd 432c d83d 4ccc a7be
00000300: 5dcf a83e 1db5 01be c313 58bd ddae c2be
00000310: d837 bebd 3f11 bdbe 4cea 283e 55dd 403d
00000320: 1540 6bbe f0b9 bd3d 21e3 3bbb f7d0 e7bd
00000330: 08d7 2abd 384b 8bbe 7345 bb3d a061 97be
00000340: 09f4 a2be f0f1 d9bc 156f 853e ec33 0ebd
00000350: 6e83 4ebe ad4c 823d ef99 2a3e 1c0f dc3d
00000360: 893e f2bd 40ae 4bbe 7a7f 523e fce3 14be
00000370: 631f 4e3e 8ef8 803d 2a9f 5d3d d934 243c
00000380: aa0b 103e fcb8 133d bcb1 eebd f025 e33d
00000390: 87cf f03d ebac fcbe 947d 963d 314e 07be
000003a0: d7f5 2a3e c811 7c3d 828d b7bd 732d 7a3e
000003b0: c8cd cf3d 52c7 aa3d c1a0 8e3c 2bc3 2b3e
000003c0: 351e afbc 3d15 d93d 137b 0bbe fa0a 48be
000003d0: e681 77bd 62b6 d53c 9b51 323d 66cf ce3d
000003e0: 9f15 d1be 282b 173e e3ad a4bc 5f6e 1a3c
000003f0: 3e9c 6dbd 1f16 89bd 1ed2 883d 41af e9bd

bias f4 [256]
-0.121473044 -0.21705887 -0.3105628 -0.38455412 -0.14149973 0.28193805 -0.2506931 -0.6121938
-0.45498627 -0.03648471 0.01290776 0.112038285 -0.083090454 0.14506163 -0.36986744 0.07935145
-0.64285594 -0.44537494 0.009100296 -0.2574065 -0.36441952 -0.27817774 -0.2766697 -0.06549332
-0.2399849 0.016518677 -0.34346122 -0.021514012 -0.14257188 -0.34265128 -0.43194717 -0.34386563
-0.050950482 -0.1690683 -0.10326908 -0.29799077 -0.5978064 -0.05095501 -0.36138424 -0.65858895
-0.4402076 -0.094813265 -0.23669375 -0.27468482 0.20461863 -0.42771843 -0.41168386 -0.33597904
-0.10457591 -0.15000115 -0.34907258 -0.06535944 -0.27443227 -0.13826714 -0.26743764 -0.52570504
-0.27019498 -0.13888958 0.020155864 -0.11079377 -0.03565009 -0.15668704 -0.400584 -0.0543346
0.037580676 -0.48584253 -0.33000138 0.16344239 -0.027023308 -0.41610855 -0.35584658 -0.6123054
-0.10984058 -0.064917885 0.10016157 -1.2595354 -0.33322167 -0.38037714 -0.37399533 -0.090627894
-0.13163725 0.25929412 -0.25474733 -0.1873905 -0.044120535 -0.43637782 -0.07178791 -0.17815176
-0.41033822 -0.3355133 -0.2060445 -0.27943516 -0.40704554 0.0035636737 -0.2960938 0.026873445
-0.527303 -0.3052853 -0.19589217 -0.098797366 0.07021185 -0.7998268 -0.24912113 -0.46867904
-0.39225644 -0.5723067 -0.18850948 -0.2137454 -0.112762414 -0.40405867 -0.13274226 -0.023487067
-0.044342082 -0.1300046 -0.42271307 -0.19423144 -0.042152155 -0.05129927 -0.23167628 0.24654117
-0.14139082 -0.35095683 -0.2673358 0.08751607 -0.2511633 -0.09100444 0.035819165 -0.023579542
-0.4730731 -0.18572041 -0.7413171 -0.004627241 -0.15587926 -0.1217591 -0.15954715 -0.3292091
-0.0015704199 -0.009083535 -0.17173226 -0.005198241 -0.3897704 -0.33883247 -0.17536286 -0.23259892
-0.2579552 -0.3977646 -0.02533477 -0.112668276 -0.12715344 0.02662285 -0.1763448 0.123358466
-0.48530862 -0.606429 -0.2958525 -0.40657976 -0.33269778 -0.9013569 -0.0010995609 -0.23865283
-0.3477718 -0.08282925 -0.20652412 -0.16048498 -0.25536457 -0.11047719 -0.10070257 -0.15415646
0.046435196 -0.3028397 0.0067257173 -0.25782907 -0.6012382 -0.37054425 -0.76225865 -0.3865315
-0.6011865 -0.2628362 -0.10599669 -0.7726702 -0.40943468 -0.32785523 -0.18273233 -0.124586426
-0.5157586 -0.34814063 -0.53675973 -0.02470258 -0.048260346 -0.20373958 -0.16657384 0.028747091
-0.6171009 -0.46521345 -0.60737157 -0.056076854 -0.035258375 0.16659956 0.0902619 0.11179531
-0.10786692 -0.36168543 -0.02308351 -0.18005054 -0.25094178 -0.17863743 -0.08890568 -0.65854937
-0.16923364 -0.29322174 -0.18899883 0.07457425 -0.2803432 -0.13053311 0.217694 -0.5108024
-0.23776889 -0.20168927 -0.029662082 -0.31816292 -0.54614556 -0.4079647 -0.10471702 -0.09230844
-0.08494018 -0.0005465289 0.06756509 0.05285556 -0.1583849 -0.9231059 -0.1452477 -0.53596795
-0.17204319 -0.8265025 -0.19410402 -0.2685835 -0.14054424 -0.14618085 -0.53895617 -0.23024164
-0.3022896 -0.26788244 -0.13032596 -0.3646169 -0.1395502 -0.27172878 0.24067 -0.2894356
-0.2630348 -0.43139115 -0.5017691 0.27593288 -0.22179167 -0.18812473 0.16165407 -0.3350383
00000000: dcc6 f8bd ae44 5ebe 1602 9fbe 47e4 c4be
00000010: 4ee5 10be 2f5a 903e d95a 80be bcb8 1cbf
00000020: f6f3 e8be fe70 15bd 127b 533c 5474 e53d
00000030: 542b aabd 098b 143e 445f bdbe 0383 a23d
00000040: 3592 24bf 2f08 e4be 6819 153c c9ca 83be
00000050: 3295 babe 506d 8ebe a7a7 8dbe 5d21 86bd
00000060: 9abe 75be 2d52 873c 26da afbe 273e b0bc
00000070: 5dfe 11be fd6f afbe 2e28 ddbe 280f b0be
00000080: 74b1 50bd 3e20 2dbe bd7e d3bd 3f92 98be
00000090: d709 19bf 33b6 50bd 5b07 b9be 4999 28bf
000000a0: e462 e1be 752d c2bd d95f 72be 7da3 8cbe
000000b0: 8c87 513e e9fd dabe 3ac8 d2be 7205 acbe
000000c0: e52b d6bd e799 19be a4b9 b2be 2cdb 85bd
000000d0: 6382 8cbe e795 0dbe 96ed 88be 9b94 06bf
000000e0: ff56 8abe 1239 0ebe e91d a53c d8e7 e2bd
000000f0: d405 12bd 9172 20be 5919 cdbe f58d 5ebd
00000100: 32ee 193d 5ac0 f8be f1f5 a8be 715d 273e
00000110: fc5f ddbc 2e0c d5be 8631 b6be 0cc0 1cbf
00000120: 19f4 e0bd abf3 84bd 8221 cd3d 7538 a1bf
00000130: 089c aabe cbc0 c2be 517c bfbe 1e9b b9bd
00000140: eacb 06be 33c2 843e 3e6e 82be 4ce3 3fbe
00000150: bcb7 34bd ea6c dfbe 8a05 93bd 6a6d 36be
00000160: da17 d2be 66c8 abbe 54fd 52be 2012 8fbe
00000170: 4668 d0be 868c 693b 9b99 97be b325 dc3c
00000180: 54fd 06bf 5b4e 9cbe f597 48be 4656 cabd
00000190: 3bcb 8f3d 73c1 4cbf 9c19 7fbe b3f6 efbe
000001a0: d6d5 c8be b182 12bf a108 41be 13e0 5abe
000001b0: fbef e6bd c7e0 cebe 96ed 07be f367 c0bc
000001c0: 0ba0 35bd ed1f 05be d96d d8be 9be4 46be
000001d0: bda7 2cbd 2f1f 52bd 8c3c 6dbe 4a75 7c3e
000001e0: c1c8 10be 9db0 b3be 3de0 88be a03b b33d
000001f0: 7a98 80be 8960 babd 1eb7 123d e229 c1bc
00000200: a336 f2be 7e2d 3ebe f5c6 3dbf 1ca0 97bb
00000210: d09e 1fbe d65c f9bd 5460 23be 188e a8be
00000220: 8cd6 cdba 1bd3 14bc 95da 2fbe 0256 aabb
00000230: fc8f c7be 737b adbe 5292 33be 692e 6ebe
00000240: b412 84be cda7 cbbe dd8a cfbc a0be e6bd
00000250: 8334 02be 2a18 da3c bb93 34be 5da3 fc3d
00000260: 5f7a f8be ee3e 1bbf fb79 97be 392b d0be
00000270: 5d57 aabe 53bf 66bf 241f 90ba 6861 74be
00000280: 250f b2be 62a2 a9bd 0f7b 53be 2d56 24be
00000290: 25bf 82be dd41 e2bd 263d cebd 31db 1dbe
000002a0: d532 3e3d ce0d 9bbe 6863 dc3b 2c02 84be
000002b0: bfea 19bf fab7 bdbe 6223 43bf 75e7 c5be
000002c0: 5ce7 19bf 7792 86be cb14 d9bd b7cd 45bf
000002d0: 6ca1 d1be a4dc a7be 2f1e 3bbe 2b27 ffbd
000002e0: c108 04bf 7d3f b2be 1669 09bf 115d cabc
000002f0: a4ac 45bd 1ca1 50be 5592 2abe 057f eb3c
00000300: 53fa 1dbf 7530 eebe b47c 1bbf d8b0 65bd
00000310: 166b 10bd 1399 2a3e 3bdb b83d f1f4 e43d
00000320: 55e9 dcbd d52e b9be a119 bdbc 2b5f 38be
00000330: 717b 80be bbec 36be 2e14 b6bd b196 28bf
00000340: 954b 2dbe 2921 96be e988 41be 62ba 983d
00000350: 2589 8fbe 79aa 05be 2deb 5e3e f2c3 02bf
00000360: b079 73be a287 4ebe e5fd f2bc 40e6 a2be
00000370: 32d0 0bbf c0e0 d0be e175 d6bd 350c bdbd
00000380: 1ef5 adbd ef44 0fba 915f 8a3d 127f 583d
00000390: a72f 22be ab50 6cbf d0bb 14be 3235 09bf
000003a0: 172c 30be ab95 53bf 34c3 46be c783 89be
000003b0: d4ea 0fbe 6fb0 15be 08f9 09bf 77c4 6bbe
000003c0: b4c5 9abe e327 89be 2b74 05be 11af babe
000003d0: 3fe6 0ebe 0920 8bbe 3272 763e e730 94be
000003e0: 7fac 86be 4ddf dcbe f173 00bf 1347 8d3e
000003f0: 5b1d 63be c5a3 40be a588 253e 248a abbe

weight f4 [128, 256]
0.053228028 0.1571943 0.13856672 0.024343891 -0.08179784 0.007627651 -0.0986805 -0.043680556
0.03553899 -0.17607859 0.0750547 -0.021219835 -0.13130468 0.04222135 -0.04161587 -0.08582968
0.008005688 -0.032552388 -0.022748748 0.07554556 -0.09617741 -0.08386999 0.104894966 -0.15818432
-0.18326814 -0.051903494 -0.09865512 -0.083214045 -0.036283333 0.16973986 -0.184303 -0.012929406
-0.020129694 0.081702985 -0.2093717 0.05377966 -0.055569094 0.084710635 -0.045137856 -0.016654756
-0.07646329 -0.05690078 0.03534547 0.073913835 0.007846545 -0.05431468 0.15791945 0.036148656
0.046946716 -0.044304077 -0.06628903 -0.0083056195 0.034466084 -0.07308034 0.015158271 0.012628429
-0.110996075 -0.13427076 -0.084244125 -0.0855242 -0.22047038 -0.17633407 0.07294817 -0.019864189
0.13344 0.015669748 -0.15346317 -0.06508383 -0.1769729 0.028185708 -0.088137865 -0.002888838
0.07723802 -0.1401186 0.08576324 0.08304571 0.20553386 -0.12423863 -0.058014333 0.08340652
0.06707615 0.1379038 0.0072656134 0.19980967 -0.15168224 0.062716454 -0.083387166 0.00896931
0.10006807 -0.073984586 0.19908087 0.08190535 0.083143644 0.074285604 -0.22874416 0.16478454
0.31456023 0.11883749 -0.02098292 0.1250018 -0.031773675 -0.0103906365 -0.060934268 0.03926904
-0.02218651 -0.2229927 0.12878999 0.13396876 -0.01363128 0.14150217 -0.38479805 -0.104250096
-0.08064358 -0.012581318 0.033903275 0.057228703 0.1820764 0.10568541 -0.09109692 0.002090333
-0.124478735 0.023303729 0.06429609 0.11597893 -0.12224251 0.06354085 0.07182415 0.23074904
0.15556084 0.007292257 0.08583395 0.05631612 0.0053134933 0.12416371 0.045833435 0.0059688673
-0.22845638 0.19546397 0.14254041 0.06700016 0.08371431 0.17566971 0.046034645 -0.1812993
0.067734525 -0.07494766 0.09890847 -0.036549114 -0.16606101 0.101996526 0.16393083 0.12117341
-0.08127355 -0.004072103 -0.07767787 0.07937016 -0.0030103968 0.13417551 -0.12259371 0.1683502
-0.06513666 0.073467866 -0.060027197 -0.07737565 -0.07234938 -0.1342651 -0.13276589 -0.1258899
0.010161471 0.020100586 0.095475644 0.08574356 0.08011779 -0.034880377 -0.060526427 0.010536544
0.061232045 -0.13161138 -0.26091024 0.07125105 -0.14573959 -0.06511772 -0.089995086 -0.11478229
-0.08889029 -0.07516259 0.11514187 0.034494728 0.0824021 0.056504585 -0.06255248 0.048970867
-0.07663284 -0.09994058 -0.05728163 -0.13354182 -0.14542969 -0.021986514 -0.109428324 0.11885363
-0.018969705 -0.08442556 -0.02336743 0.13217479 0.06420384 -0.038155105 0.14970735 -0.20293678
-0.055284616 -0.048110668 -0.033467803 0.019777745 -0.00021117291 -0.08326292 0.033240058 -0.13216536
0.14785649 0.2338046 -0.14623669 -0.05082961 0.09036508 -0.09046884 -0.06324611 0.07128675
0.0026244333 -0.2740135 0.04140887 -0.05085601 -0.056375165 -0.07458994 -0.030972295 0.17542134
-0.07487441 0.02571949 0.11091332 -0.037201606 -0.09969746 0.059689578 0.16662094 0.05122013
-0.0072415373 0.046276495 0.156534 -0.14100602 -0.011764834 -0.20606776 0.112033315 0.1869104
0.020138511 -0.05984416 0.14916842 -0.04597129 0.017957583 -0.10803337 -0.00819115 -0.049874827
00000000: a205 5a3d 8bf7 203e 6fe4 0d3e d76c c73c
00000010: a085 a7bd 60f1 f93b 0119 cabd 62ea 32bd
00000020: 5591 113d f24d 34be 47b6 993d 38d5 adbc
00000030: bc74 06be 4bf0 2c3d 6775 2abd 79c7 afbd
00000040: 4a2a 033c a755 05bd 955b babc a1b7 9a3d
00000050: a9f8 c4bd 08c4 abbd 2cd3 d63d 12fb 21be
00000060: a5aa 3bbe c298 54bd b20b cabd 206c aabd
00000070: d59d 14bd 49d0 2d3e edb9 3cbe dcd5 53bc
00000080: 07e7 a4bc e553 a73d 8965 56be 1048 5c3d
00000090: 6b9c 63bd c57c ad3d 79e2 38bd 8e6f 88bc
000000a0: c998 9cbd cb10 69bd 69c6 103d 2360 973d
000000b0: cc8e 003c 1279 5ebd a3b5 213e 9d10 143d
000000c0: 334b 403d 3178 35bd 8bc2 87bd 4b14 08bc
000000d0: 4f2c 0d3d 25ab 95bd 665a 783c 78e7 4e3c
000000e0: e951 e3bd 467e 09be 2f88 acbd 5027 afbd
000000f0: fdc2 61be eb90 34be da65 953d 39ba a2bc
00000100: 7fa4 083e d85d 803c 7325 1dbe ac4a 85bd
00000110: 6238 35be b7e5 e63c a081 b4bd a952 3dbb
00000120: f82e 9e3d 407b 0fbe a3a4 af3d df13 aa3d
00000130: 7877 523e d370 febd 70a0 6dbd 0ad1 aa3d
00000140: 385f 893d a736 0d3e 6214 ee3b e89a 4c3e
00000150: 9752 1bbe 7c71 803d e4c6 aabd 03f4 123c
00000160: 7df0 cc3d 3b85 97bd dbdb 4b3e febd a73d
00000170: 3747 aa3d 0d23 983d e93b 6abe 47bd 283e
00000180: 0a0e a13e 1261 f33d 5fe4 abbc 7900 003e
00000190: 1d25 02bd 7d3d 2abc 3696 79bd 93d8 203d
000001a0: 7cc0 b5bc 3358 64be 86e1 033e 1b2f 093e
000001b0: bb55 5fbc f2e5 103e 4004 c5be 1381 d5bd
000001c0: 7628 a5bd df21 4ebc 29de 0a3d a568 6a3d
000001d0: 3c72 3a3e 9871 d83d 0691 babd f8fd 083b
000001e0: b5ee febd 76e7 be3c abad 833d 5c86 ed3d
000001f0: 485a fabd b521 823d 8a18 933d 7a49 6c3e
00000200: 574b 1f3e e3f3 ee3b b6c9 af3d bbab 663d
00000210: d01c ae3b 8b49 fe3d d7bb 3b3d 7d96 c33b
00000220: 78f0 69be b527 483e 1df6 113e 6137 893d
00000230: 6872 ab3d c3e2 333e d38e 3c3d 86a6 39be
00000240: 66b8 8a3d 297e 99bd 8690 ca3d 86b4 15bd
00000250: e60b 2abe 8ee3 d03d 7cdd 273e c429 f83d
00000260: bf72 a6bd 476f 85bb 9315 9fbd d38c a23d
00000270: 144a 45bb 4e65 093e 6912 fbbd ff63 2c3e
00000280: 5f66 85bd 5276 963d 14df 75bd 2077 9ebd
00000290: e92b 94bd ca7c 09be c8f3 07be 48e9 00be
000002a0: 4c7c 263c fca9 a43c bc88 c33d 529a af3d
000002b0: cc14 a43d bade 0ebd 8fea 77bd 78a1 2c3c
000002c0: 74ce 7a3d 22c5 06be 0796 85be 12ec 913d
000002d0: c23c 15be 705c 85bd 584f b8bd fa12 ebbd
000002e0: 1d0c b6bd d8ee 99bd 80cf eb3d 584a 0d3d
000002f0: 6fc2 a83d 5a71 673d 841b 80bd ad95 483d
00000300: aef1 9cbd a6ad ccbd 24a0 6abd 30bf 08be
00000310: 85eb 14be 101d b4bc f51b e0bd 8869 f33d
00000320: 5b66 9bbc 4fe7 acbd 0d6d bfbc d458 073e
00000330: 4e7d 833d 8748 1cbd e24c 193e a9ce 4fbe
00000340: 1f72 62bd b10f 45bd 8915 09bd f004 a23c
00000350: 4c6e 5db9 c085 aabd ba26 083d 5b56 07be
00000360: b167 173e 796a 6f3e 12bf 15be b632 50bd
00000370: 5411 b93d ba47 b9bd 2d87 81bd cafe 913d
00000380: affe 2b3b 7f4b 8cbe 599c 293d 644e 50bd
00000390: a5e9 66bd 9cc2 98bd 9cb9 fdbc a7a1 333e
000003a0: c157 99bd aeb1 d23c 8626 e33d b660 18bd
000003b0: 2f2e ccbd 0f7d 743d ae9e 2a3e 33cc 513d
000003c0: 6b4a edbb 6c8c 3d3d 734a 203e e263 10be
000003d0: 4ac1 40bc 6d03 53be b971 e53d 7165 3f3e
000003e0: 85f9 a43c 261f 75bd 9bbf 183e 644c 3cbd
000003f0: c81b 933c 9940 ddbd 2c34 06bc 8c49 4cbd

bias f4 [128]
-0.04030908 -0.418573 -0.30330405 -0.3870962 -0.016186105 0.05858903 0.031749986 0.06551387
0.015515425 -0.055206783 -0.6114479 -0.21901087 -0.09828816 -0.10127574 -0.49091142 -0.028614223
-1.0421373 -0.028010076 -0.15869175 -0.09490698 0.18558306 -0.16467114 -0.15035897 -0.028758364
-0.2759068 0.31766254 0.37896988 -0.21465461 -0.17693166 -0.054918673 -0.52685994 -0.35544863
0.024953729 -0.25184125 -0.41932014 -0.030212548 -0.22157022 -1.0657116 0.010489569 0.057300806
-0.018264523 -0.14162646 -0.4034944 -0.5840948 -0.1670865 -0.5869615 -0.12152216 0.014610232
-0.24593371 0.17226718 -0.23255926 -0.32541224 0.13787265 0.056543503 0.011928443 -0.34375694
-0.11940453 0.024344355 -0.2629182 -0.35429767 -0.3491596 -0.77966714 -0.11027967 -0.06593292
-0.5098952 -0.3291065 -0.487901 0.15623216 -0.14104457 -0.16103622 -0.2340239 -0.1346725
-0.7229491 -0.001739494 -0.061816186 -0.5117022 -0.60495424 -0.19246323 -0.12296874 -0.043377403
-0.14720762 -0.26790762 -0.32938877 -0.17983463 -0.26937062 -0.78372896 -0.09679944 -0.005671705
0.019448766 -0.045367368 -0.30303442 -0.16918442 -0.07411755 -0.29437757 -0.053990435 -0.03092366
-0.41909042 0.12960315 -0.11567151 -0.13283242 -0.009986594 -0.18300152 -0.08750322 0.02093286
0.087353334 -0.25934863 -0.14393003 0.22782859 -0.29023182 -0.530783 -0.07621315 -0.03945209
-0.13232811 -0.49567783 -0.02857252 -0.23402876 -0.3385883 -0.3803514 -0.6210493 -0.36238134
-0.75923723 -0.09830575 0.07196761 -0.2578783 0.15825166 -0.19745247 0.16836815 -0.045367457
00000000: 221b 25bd 334f d6be ab4a 9bbe 7931 c6be
00000010: b998 84bc 0dfb 6f3d 460c 023d 232c 863d
00000020: 6934 7e3c 8220 62bd d987 1cbf 6344 60be
00000030: 4e4b c9bd a869 cfbd be58 fbbe 6068 eabc
00000040: c164 85bf 6375 e5bc 1780 22be 975e c2bd
00000050: 7c09 3e3e 8d9f 28be b4f7 19be a996 ebbc
00000060: a843 8dbe aaa4 a23e 5708 c23e 6bce 5bbe
00000070: 932d 35be 67f2 60bd 4be0 06bf 5dfd b5be
00000080: c36b cc3c 56f1 80be 21b1 d6be 4e80 f7bc
00000090: 4ee3 62be 3d69 88bf 71dc 2b3c 40b4 6a3d
000000a0: 7b9f 95bc 8706 11be d196 cebe 3d87 15bf
000000b0: b918 2bbe 1c43 16bf 9ce0 f8bd c15f 6f3c
000000c0: 0cd6 7bbe cf66 303e 0424 6ebe 6f9c a6be
000000d0: 7d2e 0d3e 299a 673d 846f 433c e900 b0be
000000e0: 5d8a f4bd d06d c73c 379d 86be 8166 b5be
000000f0: 0cc5 b2be 4498 47bf 4fda e1bd d707 87bd
00000100: 7e88 02bf a680 a8be 29ce f9be 53fb 1f3e
00000110: fd6d 10be aee6 24be f6a3 6fbe 96e7 09be
00000120: 3113 39bf bcff e3ba f832 7dbd eafe 02bf
00000130: 48de 1abf 1515 45be 09d7 fbbd 81ac 31bd
00000140: 98bd 16be 302b 89be a5a5 a8be 9226 38be
00000150: f2ea 89be 76a2 48bf c93e c6bd b6d9 b9bb
00000160: 0553 9f3c 22d3 39bd 5427 9bbe ae3e 2dbe
00000170: f1ca 97bd a8b8 96be 1325 5dbd 9e53 fdbc
00000180: 0593 d6be b0b6 043e 2fe5 ecbd 3905 08be
00000190: d09e 23bc c064 3bbe e334 b3bd 647b ab3c
000001a0: 4ee6 b23d 58c9 84be 6562 13be e64b 693e
000001b0: 4499 94be 65e1 07bf a415 9cbd 8498 21bd
000001c0: 0581 07be 7cc9 fdbe eb10 eabc 3ca5 6fbe
000001d0: 725b adbe 6bbd c2be 16fd 1ebf 0c8a b9be
000001e0: 5f5d 42bf 8654 c9bd c163 933d a008 84be
000001f0: b90c 223e fb30 4abe b368 2c3e 3ad3 39bd

weight f4 [128, 128]
0.067446545 0.16677214 0.023559108 -0.120900206 0.021060629 -0.011106194 -0.1787899 0.22275548
-0.058188498 0.013236194 0.078530915 -0.16121863 -0.107837774 0.1384835 0.15963548 0.15237518
0.16835898 -0.009788377 0.05842746 -0.15507384 -0.13811928 0.16835189 0.06770018 0.0037722522
0.054998547 0.013347411 -0.07843276 0.10216616 0.06266713 -0.029885057 -0.015497051 0.06921395
-0.23859029 -0.0335627 -0.0502657 0.07567743 -0.0048545655 0.097192444 0.0030667307 -0.22516137
-0.11527804 0.024100747 0.15961207 0.02273424 -0.048568036 0.008174663 0.023985457 -0.03240666
-0.060142998 -0.12403951 -0.17388706 -0.023694353 -0.083056115 -0.008257022 -0.0024032032 0.045557078
-0.28506956 -0.03956136 -0.13730538 0.15703605 -0.0075107133 -0.06315961 0.019500399 -0.05056315
0.056000054 -0.07135869 0.0017314812 0.087353736 -0.15948619 0.013729147 -0.081074126 -0.12994714
0.05031206 0.18619467 0.0771634 0.14671898 0.1699357 0.090780064 0.015930362 -0.19760525
0.033114213 -0.07618066 -0.062111903 -0.03869969 0.024571465 0.18472326 -0.13190852 -0.14610775
-0.1516748 0.008853557 -0.0023830226 0.029697446 0.18397465 0.01884993 -0.024007212 -0.09609094
0.01747652 -0.028441267 0.0005298444 -0.08267629 -0.100375414 -0.19636935 0.026389949 -0.05125074
-0.24753901 0.04585869 -0.13226591 -0.080025904 -0.010417389 0.046486016 -0.11499919 0.021369196
-0.022471173 0.19236901 0.023647336 -0.28299367 0.073292345 -0.1821961 0.032726143 0.12987027
0.14592695 0.030208062 -0.17656946 0.07910934 -0.07072711 0.014143684 0.05276225 -0.17438494
-0.036480296 0.050219886 0.023676194 -0.052013364 0.0011519062 0.03055363 -0.15605073 -0.19142017
0.09897182 0.022857245 0.14518562 0.11299325 -0.11589337 -0.030458497 0.017843463 -0.044425476
0.17133227 -0.041990623 -0.040779635 -0.10529282 -0.074135505 0.068084665 -0.23945639 -0.043380547
-0.06666827 -0.12890732 -0.014970001 -0.116363324 -0.19294119 -0.11969395 -0.01993999 0.14800711
-0.07150452 0.1389633 0.034821767 -0.022696055 0.096764915 0.13594817 0.1629368 -0.15013984
-0.06199264 -0.0717834 -0.09834971 0.15876642 0.09077678 0.15582673 -0.24573943 -0.16533254
-0.07086421 -0.24601051 -0.10359626 -0.12812823 0.005886349 0.10408447 0.12694314 -0.23114751
-0.012068596 -0.050318293 0.12246574 -0.026816383 0.11525122 0.065095864 -0.08014441 -0.08317958
0.10259598 -0.007099032 0.012662885 0.115943395 -0.12867445 0.13660796 0.27049908 0.02318232
-0.0008730411 0.016687972 0.057746217 -0.031486385 0.1316875 -0.04937436 0.065040536 -0.086968385
-0.16716152 -0.033030663 -0.0806545 0.12129463 0.07355857 0.09672337 -0.07677947 -0.067521416
0.13899675 -0.13371786 0.060239624 -0.035837356 0.23660445 0.0243037 -0.054461017 0.08296887
0.16857071 -0.11561326 -0.11232767 -0.04935131 0.046375874 0.057803843 -0.0253741 -0.039943416
-0.19909425 -0.10831604 0.04762431 0.048467252 0.10486327 0.17085841 -0.038096264 0.12703846
0.1676937 0.06920816 0.031111684 0.13606596 -0.003005702 -0.23009016 0.039486635 0.086783156
0.106253155 0.19148085 -0.23108593 -0.075240366 -0.13870077 -0.13866016 0.03506283 0.0314815
00000000: 6a21 8a3d 51c6 2a3e 08ff c03c 879a f7bd
00000010: 5787 ac3c c1f6 35bc b314 37be 031a 643e
00000020: 1057 6ebd 9fdc 583c d1d4 a03d 7f16 25be
00000030: 0dda dcbd 9ece 0d3e 7c77 233e 3d08 1c3e
00000040: 4c66 2c3e 6e5f 20bc a251 6f3d adcb 1ebe
00000050: 246f 0dbe 7064 2c3e 64a6 8a3d e437 773b
00000060: 2846 613d 19af 5a3c 5ba1 a0bd 7e3c d13d
00000070: a057 803d 82d1 f4bc 58e7 7dbc 0bc0 8d3d
00000080: 0351 74be 0b79 09bd 68e3 4dbd c5fc 9a3d
00000090: 0c13 9fbb d50c c73d 34fb 483b b490 66be
000000a0: e516 ecbd ee6e c53c 5971 233e 283d ba3c
000000b0: 47ef 46bd 06ef 053c 267d c43c d9bc 04bd
000000c0: 8158 76bd 6d08 febd 730f 32be a91a c2bc
000000d0: 5319 aabd 7648 07bc 0f7f 1dbb 0f9a 3a3d
000000e0: a3f4 91be 180b 22bd c899 0cbe 0fce 203e
000000f0: 6e1c f6bb d359 81bd 4dbf 9f3c 4e1b 4fbd
00000100: 5060 653d 8124 92bd def2 e23a 84e6 b23d
00000110: 5950 23be 37f0 603c 310a a6bd dd10 05be
00000120: 0514 4e3d d1a9 3e3e d807 9e3d 803d 163e
00000130: a003 2e3e e6ea b93d 6480 823c 0859 4abe
00000140: c5a2 073d 9b04 9cbd 0d69 7ebd 9183 1ebd
00000150: 194a c93c 1828 3d3e 0713 07be 459d 15be
00000160: a450 1bbe 820e 113c 7c2c 1cbb 0f48 f33c
00000170: da63 3c3e 2b6b 9a3c c6aa c4bc 54cb c4bd
00000180: eb2a 8f3c a9fd e8bc 41e5 0a3a 3052 a9bd
00000190: a091 cdbd 0c15 49be bc2f d83c 4cec 51bd
000001a0: de7a 7dbe 52d6 3b3d b770 07be 9fe4 a3bd
000001b0: b2ad 2abc 1f68 3e3d b284 ebbd 740e af3c
000001c0: 7715 b8bc 62fc 443e 0fb8 c13c 8ce4 90be
000001d0: 4c1a 963d 9d91 3abe d90b 063d b6fc 043e
000001e0: e06d 153e e676 f73c a0ce 34be 1404 a23d
000001f0: 60d9 90bd e9ba 673c 3b1d 583d f791 32be
00000200: 5d6c 15bd 5eb3 4d3d 94f4 c13c f70b 55bd
00000210: 8ffb 963a 9b4b fa3c c3cb 1fbe a603 44be
00000220: bdb1 ca3d 1e3f bb3c 8aab 143e 0169 e73d
00000230: 8159 edbd 1984 f9bc 742c 923c 7df7 35bd
00000240: ba71 2f3e 5cfe 2bbd 8c08 27bd c3a3 d7bd
00000250: 5bd4 97bd f96f 8b3d 0e34 75be cdaf 31bd
00000260: 6089 88bd 4800 04be bc44 75bc e54f eebd
00000270: 6092 45be 1a22 f5bd 3159 a3bc 2d8f 173e
00000280: f670 92bd 654c 0e3e 45a1 0e3d 14ed b9bc
00000290: af2c c63d ff35 0b3e e8d8 263e 42be 19be
000002a0: ffeb 7dbd 2d03 93bd 936b c9bd aa93 223e
000002b0: 2de9 b93d 0b91 1f3e 1ea3 7bbe ef4c 29be
000002c0: 4121 91bd 2eea 7bbe 472a d4bd 0c34 03be
000002d0: 46e2 c03b 3d2a d53d 62fd 013e efb1 6cbe
000002e0: 5cbb 45bc 8e1a 4ebd 51cf fa3d 08ae dbbc
000002f0: d508 ec3d fb50 853d c122 a4bd 0e5a aabd
00000300: d71d d23d ff9e e8bb fd77 4f3c bb73 ed3d
00000310: 3cc3 03be f5e2 0b3e db7e 8a3e d9e8 bd3c
00000320: ccdc 64ba 37b5 883c 4c87 6c3d def7 00bd
00000330: 17d9 063e c53c 4abd f933 853d 7b1c b2bd
00000340: 642c 2bbe 294b 07bd 302e a5bd 5269 f83d
00000350: e0a5 963d e716 c63d 8e3e 9dbd ab48 8abd
00000360: 2a55 0e3e 56ed 08be d3bd 763d 31ca 12bd
00000370: 7048 723e 8e18 c73c 8412 5fbd 95eb a93d
00000380: cd9d 2c3e a5c6 ecbd 0d0c e6bd 9924 4abd
00000390: a1f4 3d3d b9c3 6c3d 58dd cfbc b59b 23bd
000003a0: 5ddf 4bbe cdd4 ddbd b511 433d 9985 463d
000003b0: 8ec2 d63d 82f5 2e3e d40a 1cbd 5f16 023e
000003c0: e6b7 2b3e 02bd 8d3d eedd fe3c e054 0b3e
000003d0: 50fb 44bb c19c 6bbe bdbc 213d 5ebb b13d
000003e0: 419b d93d 8e13 443e caa1 6cbe 9f17 9abd
000003f0: 9307 0ebe eefc 0dbe 0b9e 0f3d bff2 003d

bias f4 [128]
-0.29966658 -0.31091395 -0.57682663 -0.13479325 -0.06498552 -0.19382046 -0.07913515 -0.08172618
-0.040038034 -0.21418804 -0.19739735 -0.20252433 -0.20222615 0.0032071432 -0.17145115 0.029815607
-0.21163835 -0.2139314 -0.2141209 -0.6209191 -0.26410192 -0.11980962 -0.28957653 -0.22738865
-0.1111848 -0.07439471 -0.26082048 -0.069748126 -0.2300982 -0.17948622 -0.31074294 -0.10793241
-0.06381841 -0.08926823 -0.21841335 -0.05375076 -0.26358205 -0.21793151 -0.118717715 -0.099317476
-0.12128423 -0.06907204 -0.19247992 -0.7340727 -0.3140576 0.033628527 -0.29626828 -0.15414299
-0.22668523 -0.15892355 -0.033611838 -0.13275513 0.028522 -0.07996668 -0.231452 0.011124286
-0.18554635 -0.21137781 -0.049170338 -0.100318395 -0.058029216 -0.8794348 -0.0062169884 -0.17695877
-0.0851366 -0.2873126 -0.31346455 -0.07847368 -0.13730347 -0.09682404 -0.6053344 -0.03143231
-0.25178066 0.01823809 -0.16699965 -0.055169914 -0.16718656 -0.6558348 -0.15902454 -0.11086777
-0.20686753 -0.059379097 -0.22617939 -0.24664217 -0.23491876 -0.29641888 -0.28842807 -0.26215777
-0.12333304 -0.24395946 -0.050667994 -0.34083036 -0.1788932 -0.20056583 -0.048930176 -0.075661995
-0.1896807 -0.16944122 -0.24472536 -0.20421815 -0.36100036 -0.11356069 -0.21029001 -0.34813723
-0.065014146 -0.4113807 -0.076949075 -0.0594258 -0.2619009 -0.28687108 -0.4623927 -0.040380027
-0.13068442 -0.21594353 -0.12728666 -0.13710138 -0.16625361 -0.059958383 -0.09185561 -0.028083254
-0.47895977 -0.14365703 -0.23488152 -0.096641645 -0.08576165 -0.09634125 -0.098094165 -0.20480672
00000000: e66d 99be 1d30 9fbe e9aa 13bf 3e07 0abe
00000010: 2117 85bd df78 46be 9c11 a2bd 0e60 a7bd
00000020: ecfe 23bd 1c54 5bbe 8822 4abe 8a62 4fbe
00000030: 5f14 4fbe ef2e 523b e490 2fbe dc3f f43c
00000040: b9b7 58be d510 5bbe 8242 5bbe 8ef4 1ebf
00000050: 5e38 87be bf5e f5bd 6043 94be 92d8 68be
00000060: dbb4 e3bd 415c 98bd 438a 85be 1bd8 8ebd
00000070: dd9e 6bbe 3ccb 37be b319 9fbe ab0b ddbd
00000080: 3ab3 82bd 43d2 b6bd c0a7 5fbe c229 5cbd
00000090: 3af4 86be 7029 5fbe 4622 f3bd f666 cbbd
000000a0: de63 f8bd a475 8dbd 7519 45be 30ec 3bbf
000000b0: 28cc a0be 11be 093d 7ab0 97be a9d7 1dbe
000000c0: 2c20 68be dbbc 22be 91ac 09bd f6f0 07be
000000d0: f8a6 e93c 92c5 a3bd c101 6dbe a342 363c
000000e0: ddff 3dbe 6d73 58be d666 49bd bb73 cdbd
000000f0: 0bb0 6dbd a422 61bf e1b7 cbbb ae34 35be
00000100: 195c aebd a31a 93be 6d7e a0be cfb6 a0bd
00000110: 4899 0cbe af4b c6bd 32f7 1abf 2abf 00bd
00000120: 65e9 80be 0c68 953c f501 2bbe d9f9 61bd
00000130: f432 2bbe cae4 27bf 54d7 22be a40e e3bd
00000140: 15d5 53be 7f37 73bd 929b 67be c48f 7cbe
00000150: 8b8e 70be 37c4 97be d8ac 93be 8b39 86be
00000160: 0896 fcbd 82d0 79be 3e89 4fbd 5181 aebe
00000170: c72f 37be 2161 4dbe 026b 48bd adf4 9abd
00000180: a83b 42be 0082 2dbe 4999 7abe 901e 51be
00000190: 0ad5 b8be 8292 e8bd 4456 57be 0b3f b2be
000001a0: 2326 85bd 7ea0 d2be 7a97 9dbd 7868 73bd
000001b0: e017 86be c4e0 92be bcbe ecbe 8765 25bd
000001c0: 23d2 05be 4d20 5dbe 6f57 02be 4e64 0cbe
000001d0: 633e 2abe ec96 75bd cb1e bcbd da0e e6bc
000001e0: 373a f5be d41a 13be c884 70be 0eec c5bd
000001f0: cea3 afbd 904e c5bd 98e5 c8bd dab8 51be

weight f4 [9, 128]
0.021027083 -0.0018091459 -0.008147701 0.055261046 -0.007403925 0.024308335 -0.017287951 -0.0010871732
0.0020455061 0.008992882 -0.00493289 -0.012465691 -0.0007405018 0.015452023 0.0061445846 0.006059111
-0.0026844307 0.019825824 0.02915457 -0.03596734 0.016978571 -0.015781654 0.0026759894 -0.035565283
-0.02550129 -0.012038452 0.010263152 0.013396586 0.016504787 0.020041741 -0.02865143 0.0014078695
0.0014527891 0.0035524943 0.007763628 -0.033555765 0.009794205 -0.01221184 0.005018124 -0.032308754
-0.0017635087 0.021542814 0.014353054 0.10550193 -0.010169424 0.0024394852 -0.0035148675 -0.00025906233
-0.06696884 -0.0054297983 -0.00037025285 0.030897895 0.054771524 0.011374314 -0.021375423 0.015185991
-0.001649453 0.01832712 0.016439011 -0.014626318 0.021618648 0.02516878 -0.02193321 0.018433152
-0.0009649118 0.017576536 0.0138210235 -0.009796041 -0.097737804 0.008793075 0.022565579 -0.059558745
-0.008341006 -0.039432477 -0.006811334 -0.02522264 0.0053340415 -0.0063748783 -0.030848447 -0.046232548
0.10144725 0.03828267 -0.031926263 0.006959368 0.0315375 -0.031450048 0.026155597 -0.013962909
-0.04402352 0.028020542 0.02557354 -0.0052093486 -0.020308256 -0.026554866 0.05917802 -0.0018918376
-0.01731673 -0.030530464 -0.011731196 -0.03631893 -0.01011384 -0.020336917 0.02303465 -0.011239874
0.021214085 -0.007151399 0.030119743 0.03505844 -0.029771121 0.035252526 0.055742417 0.0067189094
0.0070997607 0.0060388874 0.00038365446 0.018782154 0.004120606 0.0028421793 -0.012361076 -0.033550706
0.044628546 -0.030509839 -0.058702637 -0.017053826 -0.031833015 -0.034896422 -0.01142724 -0.00249561
0.0015109144 -0.007907281 -0.0057864026 0.018115921 -0.019946856 -0.024240598 0.033048846 0.0063778837
-0.00286326 -0.0051769814 0.020892415 -0.027971435 0.03254442 0.0053523593 -0.01084223 -0.0077939923
0.013828135 0.025632415 -0.006645556 -0.05927185 -0.013663969 0.03729007 0.020904014 0.0056163063
-0.007331208 -0.036728278 0.012699194 0.02371523 0.019863706 0.065323 0.002071306 0.002411723
0.031142663 0.0009326126 -0.009463981 -0.0026765862 0.01069021 -0.03200441 0.033864196 -0.01296642
0.008557586 -0.02706273 -0.0018210796 -0.0035716032 0.041393958 -0.0031196617 0.0019499492 0.011688814
0.016545199 -0.005332939 -0.007245177 0.035885584 -0.011532083 -0.0068547004 0.009489665 -0.049189758
-0.0006852876 -0.003882932 0.005350583 0.021777876 -0.009232197 0.06164571 -0.045042004 -0.010201764
-0.008969314 -0.007988374 0.04892973 0.04501672 0.0634266 0.0006140939 -0.0033649853 -0.01589456
0.01096978 -0.018592566 -0.0038547143 -0.0064742523 -0.0055828355 -0.04788755 -0.018945163 -0.0011330671
-0.025861954 -0.1017937 0.027849415 -0.00073447643 0.013806647 -0.0002321411 -0.021152722 -0.016697504
-0.01651516 0.04764894 -0.014338938 -0.024519464 -0.052592713 0.03010486 -0.013846319 -0.0119020725
0.028531352 0.0020424828 -0.01271618 -0.04659239 0.0007407011 0.005989972 0.007964588 0.010874622
-0.0033124322 0.01077157 0.005645145 0.038310573 0.008220315 0.056231882 -0.1180714 -0.015600322
-0.018135086 -0.010052077 -0.009755764 0.018762654 0.0016121435 0.0032430552 -0.020391213 0.036295284
0.007341944 0.0007130138 0.08384105 0.007284031 -0.01471208 -0.04518691 0.0013489953 0.0063776695
00000000: fd40 ac3c dd20 edba ef7d 05bc 6859 623d
00000010: a09c f2bb 4622 c73c 769f 8dbc 7b7f 8eba
00000020: e60d 063b e256 133c 15a4 a1bb e63c 4cbc
00000030: 3c1e 42ba 7b2a 7d3c 8358 c93b 828b c63b
00000040: 46ed 2fbb c469 a23c 91d5 ee3c 7d52 13bd
00000050: a516 8b3c 8748 81bc a75f 2f3b e7ac 11bd
00000060: 15e8 d0bc ed3c 45bc c826 283c 5b7d 5b3c
00000070: 0c35 873c 942e a43c 67b6 eabc 4388 b83a
00000080: 836b be3a f7d0 683b 0866 fe3b c571 09bd
00000090: e077 203c 2b14 48bc 136f a43b 2f56 04bd
000000a0: 8825 e7ba 8e7a b03c 1229 6b3c 6511 d83d
000000b0: a89d 26bc c5df 1f3b b159 66bb c2d2 87b9
000000c0: f626 89bd 73ec b1bb 7f1e c2b9 951d fd3c
000000d0: 1b58 603d 555b 3a3c 831b afbc aace 783c
000000e0: 7532 d8ba c222 963c 1bab 863c 39a3 6fbc
000000f0: 9719 b13c c22e ce3c 46ad b3bc 1f01 973c
00000100: 22f2 7cba abfc 8f3c 9371 623c 937f 20bc
00000110: c22a c8bd d410 103c 73db b83c dff3 73bd
00000120: b7a8 08bc f383 21bd 9c31 dfbb b69f cebc
00000130: 2fc9 ae3b 5be4 d0bb e2b5 fcbc 575e 3dbd
00000140: 93c3 cf3d 4ace 1c3d 1dc5 02bd 690b e43b
00000150: 772d 013d c4d1 00bd 4344 d63c afc4 64bc
00000160: 0252 34bd 568b e53c 9a7f d13c 2fb3 aabb
00000170: 805d a6bc 9789 d9bc a764 723d 89f7 f7ba
00000180: d1db 8dbc 061b fabc 3434 40bc 29c3 14bd
00000190: 85b4 25bc 9b99 a6bc 2ab3 bc3c 7327 38bc
000001a0: 29c9 ad3c 4856 eabb aebd f63c 7099 0f3d
000001b0: 91e2 f3bc f464 103d 2952 643d 4c2a dc3b
000001c0: 1ca5 e83b dce1 c53b 3b25 c939 08dd 993c
000001d0: 2606 873b db43 3a3b 1c86 4abc 776c 09bd
000001e0: 6ccc 363d c5ef f9bc 2d72 70bd 77b4 8bbc
000001f0: 5663 02bd 8def 0ebd 5239 3bbc 638d 23bb
00000200: e009 c63a 8a8d 01bc dd9b bdbb d767 943c
00000210: 9767 a3bc 3894 c6bc 3a5e 073d 91fd d03b
00000220: 88a5 3bbb aba3 a9bb 9226 ab3c 5a24 e5bc
00000230: 4c4d 053d d862 af3b 9ca3 31bc bf64 ffbb
00000240: 678f 623c 12fb d13c f7c2 d9bb 0ac7 72bd
00000250: d7de 5fbc 79bd 183d e53e ab3c fe08 b83b
00000260: a13a f0bb 6470 16bd 4810 503c 7146 c23c
00000270: 36b9 a23c 11c8 853d c0be 073b ff0d 1e3b
00000280: e61e ff3c 927a 743a d00e 1bbc aa69 2fbb
00000290: fe25 2f3c 0e17 03bd 2fb5 0a3d 1b71 54bc
000002a0: 1e35 0c3c a9b2 ddbc 4bb1 eeba 8f11 6abb
000002b0: b68c 293d 3d73 4cbb 7095 ff3a 7082 3f3c
000002c0: cc89 873c efbf aebb f368 edbb c3fc 123d
000002d0: 10f1 3cbc 659d e0bb 8a7a 1b3c 337b 49bd
000002e0: dfa4 33ba ca78 7ebb f153 af3b 8467 b23c
000002f0: a442 17bc 3680 7c3d f77d 38bd 4d25 27bc
00000300: 08f4 12bc abe1 02bc 8a6a 483d 7463 383d
00000310: cee5 813d 25fb 203a 1687 5cbb 4f35 82bc
00000320: 98ba 333c 704f 98bc 609f 7cbb f725 d4bb
00000330: 38f0 b6bb bc25 44bd e332 9bbc 6c83 94ba
00000340: 73dc d3bc 3779 d0bd 7524 e43c e189 40ba
00000350: 4635 623c e76a 73b9 7948 adbc 34c9 88bc
00000360: cd4a 87bc 892b 433d dded 6abc 0bdd c8bc
00000370: 756b 57bd 789e f63c acdb 62bc e900 43bc
00000380: 95ba e93c 2ddb 053b 8657 50bc a9d7 3ebd
00000390: 9c2b 423a 8747 c43b e77d 023c 782b 323c
000003a0: 6415 59bb 3d7b 303c e9fa b83b 8ceb 1c3d
000003b0: 80ae 063c 6753 663d 6bcf f1bd 7e98 7fbc
000003c0: 0890 94bc 77b1 24bc a4d6 1fbc 23b4 993c
000003d0: 8f4e d33a 7089 543b 790b a7bc 5daa 143d
000003e0: b194 f03b 8ce9 3a3a dbb4 ab3d e1ae ee3b
000003f0: f00a 71bc e915 39bd c5d0 b03a c5fb d03b
