trifinger_rl_example/policies/push.pt (torch, 544099 bytes, 13 tensors)

weight f4 [256, 54]
000000 1c 2a 63 be b1 ae b9 3e 99 86 8a 3e be 2a c9 3d
       -0.22184032 0.3626609 0.27055815 0.098226056
000010 2e 3c 6d be 0e 75 9d be 76 63 78 3d 4d e1 96 3d
       -0.23167488 -0.30753368 0.06064173 0.073671915
000020 4c 0c 2b 3d a3 1f 05 3e 72 1a d6 3d 56 c1 3c 3d
       0.041759774 0.1300035 0.10454263 0.046082817
000030 ce 43 b7 bd dd 3a fd bd 4c 0a 43 be f8 d8 1b 3e
       -0.089484796 -0.12364743 -0.19046897 0.15219486
000040 c0 98 87 3d 6a 78 d7 3d d5 54 40 3d 83 37 9d bd
       0.066209316 0.10521014 0.046955902 -0.07676604
000050 8f 4a 61 3c c2 03 55 bc 5b 2a be bc 24 14 b9 3d
       0.013750686 -0.013001384 -0.023213556 0.09037045
000060 97 ca 85 bd e7 f9 b7 3d f0 41 3b 3d ea d4 60 3a
       -0.065327816 0.08983212 0.04571718 0.00085766485
000070 d5 42 a1 3c 70 ee c2 3d 6f 75 ac bd 6a 5c bc bd
       0.019685188 0.095181346 -0.08420836 -0.09197314
000080 b1 1e 2c 3e ff a2 0d 3d 08 4f 25 3d 16 37 4b bd
       0.16808583 0.034579273 0.040358573 -0.04961308
000090 5b 55 43 bd a5 44 7c bd 02 e3 81 3d 60 09 0c be
       -0.047688823 -0.061588902 0.063421264 -0.13675451
0000a0 be 5e da bd 19 80 83 3d 86 0a 8c 3e 94 65 8c be
       -0.10662602 0.06420917 0.2735178 -0.27421248
0000b0 1e 7e 8f 3d 4e 8b 65 3e 15 ff 24 3d 49 26 f0 bd
       0.07006477 0.22416422 0.040282328 -0.11726052
0000c0 9d e8 9a 3c 8e 75 0e bd 4e 3c d6 3d 18 69 2f be
       0.018909747 -0.034780078 0.10460721 -0.17129934
0000d0 e8 76 7a 3d e7 9e 46 3d ad 13 9b 3d 34 79 a2 3c
       0.061148554 0.048491385 0.07572112 0.019833185
0000e0 2f 36 47 bc 3e 4a fd 3d 58 dc 36 be 35 a4 83 bc
       -0.0121589145 0.12367676 -0.17857492 -0.016069511
0000f0 ca 14 1c be 25 9a dc 3d 9c 76 04 3e 46 24 39 be
       -0.15242305 0.10771588 0.12935871 -0.18080243
000100 98 eb 14 3e 85 88 ca bb 07 fc fb 3e 95 bf 4a bd
       0.14542997 -0.006180825 0.4921572 -0.049499113
000110 7d 6f f0 3d ac cf 90 bd 16 8c 70 bd b1 32 53 bd
       0.11740015 -0.0707086 -0.058727346 -0.051562015
000120 8b e5 7a 3d ca 65 a4 3c 3b 02 b7 3c 3a 71 a5 3d
       0.061254065 0.020068068 0.02233993 0.08078237
000130 fc 70 41 bd 38 33 70 3e 34 d7 68 3d 08 88 e6 bd
       -0.04722689 0.23457038 0.05684586 -0.11256415
000140 6f a1 db 3d ab 99 a1 bd e1 03 c0 bd 8c 75 ea 3c
       0.107241504 -0.07890638 -0.0937574 0.028620504
000150 cc b6 3b bd 1b c9 e3 bc 03 dd f6 3d ab d4 d8 3c
       -0.045828626 -0.027805855 0.120538734 0.026468595
000160 74 ba 90 bc 87 34 08 3d 8e 73 e1 bc bd 11 ff 3b
       -0.017667033 0.03325322 -0.027520921 0.007784097
000170 3c 07 0d 3e 3d 7c 2b bd 7e 60 16 be bb 8e 29 3e
       0.13772291 -0.04186653 -0.14685246 0.16558354
000180 71 c1 32 3c 91 39 90 3e e2 2d d2 3d 17 8a 06 3d
       0.010910378 0.2816892 0.10262658 0.032846536
000190 b8 68 6e 3a 21 90 0e bd 6b c3 95 bd 55 b2 50 be
       0.0009094584 -0.03480542 -0.07312664 -0.20380528
0001a0 4b 74 38 be 0d c5 01 be 0b 47 e7 bc ba a1 21 3b
       -0.18013112 -0.12672825 -0.028232118 0.0024663047
0001b0 6d 97 2f 3e 78 91 05 be 25 89 96 be ff 69 70 be
       0.17147608 -0.13043773 -0.29401508 -0.23477934
0001c0 2a 74 b9 be 69 dd 16 be 0a 0d 7d 3d 52 58 34 3d
       -0.3622144 -0.14732899 0.061780013 0.04402954
0001d0 e3 03 ac be b2 1e c6 bd b0 1e 48 3c a3 13 88 bd
       -0.33596715 -0.096738234 0.012214348 -0.066443704
0001e0 d7 b2 e4 3c c3 d5 05 be ef ad 03 be f5 a4 8b 3d
       0.027917309 -0.13069825 -0.12859319 0.068185724
0001f0 3c 9e 99 bd 30 44 5a bb a9 c7 d4 3c ac be a3 3d
       -0.07500884 -0.0033304803 0.025974112 0.07995352
000200 a2 f7 43 3c 24 1d eb bd c4 de 70 bd c8 fa 44 bd
       0.011960896 -0.114801675 -0.058806196 -0.048090726
000210 3a 86 23 3c 00 eb ae bc 35 cd ae bd c5 82 18 3d
       0.009980733 -0.021352291 -0.08535234 0.037234087
000220 02 dc 75 3d 6d e0 98 3d 3d a6 54 bc 9e 1c db 3d
       0.06002427 0.07464681 -0.012979087 0.10698818
000230 54 54 b5 bd 94 dc 8c bd 7b 60 58 3d 7c 68 e6 3c
       -0.08853975 -0.068780094 0.052826386 0.028125994
000240 a6 e7 b6 bc 55 86 fb 3d b5 54 8c 3d 0e cb c2 bd
       -0.022327255 0.12281481 0.06852094 -0.09511386
000250 7f f8 76 bc ce 63 45 bd 43 c3 0d be 1a b5 c9 3e
       -0.0150738945 -0.048190884 -0.13844018 0.39395982
000260 75 85 29 3d 81 79 75 3e 69 e8 58 3e 2b ca 22 3e
       0.04138704 0.23972131 0.21182407 0.15897433
000270 0a dc af bd b3 8c f2 bd 81 0d 88 3d d5 c7 b1 be
       -0.08586891 -0.118432425 0.06643201 -0.34722772
000280 d0 d6 ae 3e 01 69 32 3e 37 95 94 3e 67 24 a5 be
       0.34148264 0.17422868 0.29020092 -0.32254335
000290 ea 83 c2 3d ef e8 d9 be 24 d3 c3 3e 27 f2 a7 3d
       0.09497817 -0.42560527 0.38247025 0.08200484
0002a0 b6 2b d9 3d 0c ac be 3c 8a 2b 60 bd 6a ff d4 3d
       0.1060404 0.023275398 -0.054729022 0.10400279
0002b0 b6 62 04 3e 4e ac cf 3d 06 3c b9 3d 05 b8 85 3e
       0.1292828 0.101402864 0.09044652 0.26116958
0002c0 2b 2e 3f 3e 1b e5 49 be d7 17 00 3e 7f 71 be 3d
       0.18669955 -0.19716303 0.12509094 0.092989914
0002d0 be 70 1f bd 23 14 28 3e 65 39 c4 3d 7c af 82 3d
       -0.03892588 0.16413932 0.0958126 0.06381127
0002e0 0f a9 b7 bd 41 fe 4d 3b ae be ad 3d 64 ce 73 bb
       -0.08967792 0.0031432065 0.08483635 -0.0037201876
0002f0 8e a0 90 bd ff 4a 9d bd c1 92 4a 3d 96 36 a2 bc
       -0.070618734 -0.0768032 0.04945636 -0.01980142
000300 5f 86 80 3c 47 5d 7c 3d 9b ee 03 bd 00 cc cb bd
       0.015689073 0.061612394 -0.032209974 -0.09951019
000310 a7 5b 04 3d 17 1a 0e bc 09 95 0b bd f2 11 aa 3d
       0.03231397 -0.0086732125 -0.034077678 0.08304204
000320 8e bf af 3d 62 eb 57 3d 65 1b b8 3d 51 30 73 3d
       0.08581458 0.052714713 0.089896 0.05937225
000330 a7 3e d5 3d 6e bc 7d 3e 89 9e 06 be 8c 73 7c bc
       0.104123406 0.24778911 -0.13146414 -0.015408408
000340 ad 63 2b 3e 2b 09 3b be c6 ca 4a 3e d6 2a b0 be
       0.16737242 -0.18265216 0.19803914 -0.3440768
000350 4d a8 bc be 53 26 40 be 0c 4b 86 bd 49 c6 29 be
       -0.36847153 -0.1876462 -0.06557283 -0.16579546
000360 dc ee 92 3d 43 5f 31 be ae 49 66 be 13 8e f0 3d
       0.07174465 -0.17321496 -0.22489044 0.117458485
000370 11 62 58 bb c9 40 0b 3d d0 58 53 3e 34 f7 12 3f
       -0.0033017437 0.03399733 0.20639348 0.5740845
000380 16 de a4 3e f2 66 8d bc cb 43 c4 bd 7b f2 9a bd
       0.32200688 -0.017261002 -0.09583243 -0.07565781
000390 4e b9 bc 3d 7c 74 9d 3d 17 66 c6 3c 04 60 61 bc
       0.092150316 0.07688233 0.024218602 -0.013755802
0003a0 4d bd 0b 3e c7 e6 c2 3d 74 71 86 3d f8 94 aa 3d
       0.13646431 0.095166735 0.06564608 0.08329195
0003b0 2b 84 28 bc 9f 12 0f 3e d7 f9 40 bd 25 ce e0 bb
       -0.010285418 0.13971947 -0.047113266 -0.006860512
0003c0 27 7a 34 3d b8 34 5f 3d 65 48 ee 3c e4 a4 bd 3d
       0.044061806 0.054493636 0.029087255 0.09259966
0003d0 bd d3 d2 3c 4a 1c ad bd 79 bc 93 3d d9 69 06 3e
       0.02573573 -0.08452661 0.07213683 0.13126315
0003e0 cd 7a 43 bd 03 24 37 3c 72 11 08 3e fe 42 ed bd
       -0.047724534 0.011178019 0.13287905 -0.11585043
0003f0 b6 f1 88 3d 59 37 3d 3d ff 5f f2 bd 6c d9 3d bc
       0.06686728 0.04619536 -0.11834716 -0.011587482

bias f4 [256]
000000 4a c8 2e 3e 69 b9 40 bf e1 b6 0a 3e 93 8b 32 3e
       0.17068592 -0.75282913 0.13546325 0.17436056
000010 54 62 e8 3d a2 be ad 3e 3c 59 20 3e 54 ed fd 3d
       0.113468796 0.33934504 0.1565904 0.12398782
000020 88 04 91 3e 79 55 7a be ba d5 ff be 8b a8 1d 3d
       0.2832377 -0.24446668 -0.49967748 0.038490813
000030 10 25 0c be 87 fa ce 3e 0f da f8 3e 83 95 87 be
       -0.13686013 0.40425512 0.48603866 -0.26481256
000040 46 00 cb bd 47 e3 43 3d c3 c1 5f 3e 82 a3 c7 bd
       -0.099121615 0.04782417 0.21851258 -0.097479835
000050 ab d5 60 bd f3 cd ff 3c 9f b5 e9 3e c3 a4 87 be
       -0.05489127 0.031226134 0.45646378 -0.2649289
000060 05 e9 b0 3e 4f ab 48 3e c5 93 b0 3e c4 d5 7a 3e
       0.3455278 0.19596599 0.3448774 0.24495608
000070 55 fa 70 3e 12 7a cc bd 4b 9c 18 bf ec 39 9b 3e
       0.23532994 -0.099842206 -0.59613484 0.30317628
000080 f5 67 0c 3e b8 20 e3 3c 5a b7 85 bd 9d 06 14 3e
       0.13711531 0.027725562 -0.06529112 0.14455648
000090 33 cd a4 be 84 6a aa 3e 6d b9 a9 be f8 dd 98 3e
       -0.32187805 0.3328439 -0.3314928 0.2985685
0000a0 75 4b 49 3d 93 44 82 bc 44 be f0 bd 60 2e 0f 3e
       0.049144227 -0.01590184 -0.1175504 0.13982534
0000b0 24 ba 6e be 75 50 71 3d d2 72 51 3e 89 4a 39 3e
       -0.23313195 0.05891462 0.20453957 0.18094839
0000c0 41 32 bd bc 6a 0f 82 be dd 6a 77 bd 9b 68 4f be
       -0.023095252 -0.25402385 -0.060404647 -0.20254748
0000d0 9c 40 cd 3c 9b 20 aa 3d 60 87 ab 3e 3d b3 ab 3e
       0.025055222 0.08307 0.3350172 0.33535185
0000e0 77 c3 8c 3e 45 d9 e0 3e b8 ef 6e 3c 6d 80 a0 bc
       0.27492878 0.43915763 0.014583521 -0.019592488
0000f0 ba f9 fe 3e e3 4f 89 3e 36 d7 ba be 9c f5 0d 3e
       0.497999 0.2681876 -0.36492318 0.13863224
000100 be 96 ac 3d 2f 2e 90 be 60 fa a4 3e 02 2b 40 3e
       0.08427189 -0.28160235 0.3222227 0.18766406
000110 d4 9e 39 bf 1d 8c b3 3e d9 95 9a be 19 25 00 3e
       -0.7250798 0.35067835 -0.3019245 0.12514152
000120 f2 38 91 3e 0a 8e a3 3e 42 e8 0a be 5d a0 a5 3e
       0.28363758 0.31944305 -0.13565162 0.3234891
000130 cd 1e 8a 3c b5 06 0f bc e6 04 60 be 8a c6 ce be
       0.01686039 -0.008729626 -0.21876869 -0.40385848
000140 ab 71 5f 3e 76 c6 2b 3d 66 26 25 3e f5 30 f0 3d
       0.21820705 0.041937314 0.16127929 0.11728088
000150 1e 99 44 bd 85 2c 80 3d 0c 78 27 3e c3 1e 70 3e
       -0.047997586 0.062584914 0.16354388 0.23449235
000160 09 70 2e be 17 4c 6a 3e d3 da c6 3e 70 5a 34 3e
       -0.17034926 0.22880588 0.38838825 0.17612624
000170 f0 e2 de 3d 47 62 2f 3e e8 8b e4 3d b9 25 82 be
       0.10883129 0.17127334 0.111594975 -0.25419405
000180 69 12 84 3e b2 db 44 3e 88 4e 07 be c0 65 47 3d
       0.25795296 0.19224432 -0.13213551 0.04868102
000190 32 3a ef 3e 89 d4 88 be e8 db 99 be fb ba 89 be
       0.46724087 -0.2672465 -0.30050588 -0.26900467
0001a0 fa 79 02 3d dc f1 43 3e c0 c4 0a be 2e cd 54 3e
       0.031854607 0.19135231 -0.13551617 0.20781395
0001b0 b7 4e 60 3c b9 f8 1d 3e df 28 df 3e a4 05 8c bd
       0.013690642 0.15426911 0.4358587 -0.06837013
0001c0 29 45 0b be 20 92 4a 3e d7 00 7b be 33 0e ce 3e
       -0.13600601 0.19782305 -0.24512039 0.40245208
0001d0 4f 4a f5 3d fe bd fa 3d b9 a4 ee 3d 7d 93 e4 3e
       0.11977064 0.122432694 0.11652512 0.44643775
0001e0 17 9d 5e 3e ba 18 dc 3d 86 05 4f bd 1a 29 8d 3e
       0.21739613 0.10746904 -0.050542377 0.2757042
0001f0 2a f6 87 be 5b a0 88 be 13 43 bd 3e 6f aa ae 3e
       -0.26554996 -0.26684842 0.36965236 0.34114406
000200 15 a2 bd 3d 45 eb 40 3d 65 2f b4 be 63 5e 78 be
       0.0925943 0.04709937 -0.3519241 -0.24254756
000210 65 8d 34 3e d3 0b b6 be 22 7d 01 be 3b 85 5c bd
       0.17632063 -0.35555896 -0.1264539 -0.053837996
000220 4a 99 96 3e 9f 62 ac 3e 23 53 a5 be 34 26 1c 3d
       0.29413825 0.33668992 -0.3228999 0.03812237
000230 a8 09 ed 3b 05 a2 db be 84 ba a9 3e b4 70 a4 be
       0.007233817 -0.4289705 0.33150113 -0.32117236
000240 ee d4 72 be 84 34 34 be b6 d2 66 be 8b 96 ca 3e
       -0.23714039 -0.17598158 -0.22541317 0.3956798
000250 1d 05 80 bd b8 4f ad bb 06 3a 00 bf c0 ce c0 bc
       -0.06250975 -0.005289044 -0.50088537 -0.023536086
000260 b8 48 87 3d f6 3c fb be 62 32 f5 3d c5 a2 00 3d
       0.06605667 -0.49069947 0.119725004 0.03140523
000270 3e 29 71 3e 09 96 b4 be 36 c5 d8 be 3e 48 27 be
       0.23550889 -0.35270718 -0.4233796 -0.16336152
000280 38 c2 20 3e f7 45 ad be c3 57 89 3d 5c 61 b3 bc
       0.15699089 -0.3384244 0.06706192 -0.02189701
000290 9b 43 74 3e ba c3 d6 3e ad d7 86 bc e5 42 42 3e
       0.23853914 0.41946203 -0.016460264 0.1897083
0002a0 5e 2f ce bd 9d 1f e0 3e 91 30 16 be 62 d9 0b 3e
       -0.10067628 0.4377412 -0.14666964 0.13657144
0002b0 23 68 83 3e 5c 40 b9 bd fa 9e 6c 3e 61 59 90 be
       0.25665388 -0.09045479 0.2310752 -0.2819319
0002c0 16 06 46 3e 2a 8c 9f 3d 2b cc d4 3d 74 e2 b3 3e
       0.19338259 0.07790406 0.103905044 0.35133708
0002d0 95 49 b4 3e 38 5e 80 3e b2 82 57 3e 35 55 61 3e
       0.3521239 0.25071883 0.2104595 0.2200516
0002e0 9d fd 99 be 51 29 30 bb 43 1a a7 3e 5d 0e 25 be
       -0.30076304 -0.0026880095 0.32637224 -0.1611876
0002f0 92 d2 c7 3e 19 d4 5a be 9e 26 ce bb 3a ec 0b 3e
       0.3902784 -0.21369971 -0.0062912246 0.13664332
000300 a4 30 10 3e 76 64 8c 3e aa 4b 91 3e fe c6 07 bf
       0.14081055 0.27420396 0.2837804 -0.53038013
000310 db 4a 4b 3e 0b 81 ed be 09 f5 3d 3d da bc 4c 3e
       0.19852774 -0.46387514 0.04637626 0.19993916
000320 11 71 5d be dc 29 7a 3e c6 14 70 3e d6 74 ea 3e
       -0.21625163 0.2443003 0.23445424 0.45792264
000330 13 38 ba bd d5 2b 4c 3e d9 08 51 bd bf 45 54 be
       -0.090927266 0.19938596 -0.05103383 -0.20729731
000340 e2 97 3c be af 06 0d 3d 58 9b 2c 3e e6 2d c7 3d
       -0.18417314 0.034430202 0.16856134 0.09725551
000350 22 34 74 be 85 14 be 3d 5d 54 16 bf 3b ea 80 3d
       -0.23848012 0.092812575 -0.5872248 0.06294676
000360 44 e1 5e 3e e6 7d 6d be ff 9e ef be d5 f5 9f be
       0.2176562 -0.23192558 -0.46800992 -0.31242242
000370 60 04 ef 3e 49 20 5d 3e 4c 51 17 3c bc 3d 0a bf
       0.46683025 0.21594347 0.009235691 -0.5400045
000380 57 f8 8d 3e c5 87 c9 3d 3c 8d 9a 3e 70 ba 57 3e
       0.2772853 0.09840349 0.30185878 0.21067214
000390 71 15 23 be 55 44 06 be 9f 9e b2 3e 08 32 01 be
       -0.15926148 -0.13112004 0.34886643 -0.12616742
0003a0 9c d7 1d be bc 0c 9f bc a1 a6 00 bf 06 a0 fe 3d
       -0.1541428 -0.019415252 -0.50254256 0.12432866
0003b0 24 50 05 bf 22 ed c5 3e 12 d7 46 3e 37 cc aa 3e
       -0.5207541 0.3865748 0.1941798 0.3335893
0003c0 20 49 84 be fa fc 82 3c 38 f5 a4 3d 11 57 81 3e
       -0.2583704 0.01598977 0.08054584 0.2526174
0003d0 91 07 92 3d fa a0 1b 3e 2c 7d 6f 3e 8c 8f 0a 3d
       0.071303494 0.15198126 0.23387593 0.033828303
0003e0 24 2f 6b 3e 0d a7 a4 3e 9c e9 d0 3d 85 05 a4 be
       0.22967201 0.321587 0.102008075 -0.3203546
0003f0 84 a9 6b be ff e4 d1 bd bd 4e d4 3c 4b c1 ab 3e
       -0.23013884 -0.10248756 0.025916452 0.33545908

weight f4 [256, 256]
000000 ee a6 8c 3d 12 3a 3f 3e af 4f 8c 3d eb fb d0 3d
       0.06867777 0.18674496 0.06851136 0.102042995
000010 0f 04 9e bd 5d 86 70 3c a1 8f b9 3d 5b b6 26 be
       -0.07715618 0.014680472 0.09060598 -0.162805
000020 4f 8a 56 be 4f 6d 17 3e a9 6c e3 3d a5 66 d0 bc
       -0.20951198 0.14787792 0.1110471 -0.02543957
000030 75 ba 4a 3d fb 0d 2b be 6d a6 03 bd 3a 1f cb 3d
       0.049494226 -0.16704552 -0.032141138 0.09918065
000040 b2 b2 21 bd 10 e4 42 be 75 ab c7 bc 1e b9 7c 3c
       -0.039477058 -0.19032311 -0.02437375 0.015424995
000050 cf df 89 3d 13 9b 41 3e 43 54 14 be 72 84 45 be
       0.06732141 0.18906812 -0.14485268 -0.19288805
000060 bc 30 05 3d 97 43 1f bb 57 14 5e bb 5a dd d3 bd
       0.03251718 -0.0024301761 -0.0033886635 -0.10344954
000070 5f 30 be bd 56 0f 07 3e d3 54 c2 ba 74 82 87 bd
       -0.0928657 0.13189444 -0.0014826305 -0.06616679
000080 50 a3 9d 3d 91 80 91 3c 66 5f 82 3b ee 62 d4 3d
       0.07697165 0.0177615 0.0039786575 0.10370432
000090 e2 23 e3 bd 1c 8c b7 bd c7 ca 87 bc cf bc e1 3d
       -0.110908285 -0.089622706 -0.016576184 0.110223405
0000a0 99 90 a3 bd 3b 6a 8b be 53 a9 0b 3e 17 9d 65 bd
       -0.07986564 -0.27229485 0.13638811 -0.056058016
0000b0 27 75 0a 3d 31 07 2f be 06 eb a2 3b 8f 97 23 be
       0.03380313 -0.17092587 0.0049718646 -0.15975784
0000c0 e9 ed 05 3e f8 bc cf bd b4 36 08 3e 7d c2 0e be
       0.13079037 -0.10143465 0.13302118 -0.13941379
0000d0 62 c3 26 3b 1a f5 a5 3d 5f 7f 82 be 6d cb a5 ba
       0.0025446047 0.0810339 -0.254878 -0.0012649127
0000e0 df e3 1e bd 57 27 11 3a 63 db a5 3e 54 26 03 3e
       -0.038791534 0.0005537173 0.3239394 0.1280759
0000f0 cd 60 b1 3d d6 6f ac 3d e2 19 a3 3c 48 87 f3 bc
       0.086610414 0.084197685 0.019909803 -0.029727593
000100 0c d8 df bc 4e 78 a4 3d 97 18 aa 3d 68 da 20 be
       -0.027324699 0.08030759 0.083054714 -0.15708315
000110 c7 33 dc bd d1 65 b6 bd 69 4f 14 3e 10 c8 f6 bc
       -0.10752063 -0.08906139 0.14483418 -0.030124694
000120 80 09 8d ba 8c 00 d3 3d 75 20 c2 3d 1d 66 b3 bc
       -0.0010760278 0.10302839 0.09478847 -0.021899277
000130 9e f5 25 3d 79 c6 ed bd bf fb 0e 3c 86 21 92 3d
       0.040517442 -0.11610121 0.008727013 0.071353
000140 01 b6 48 be 47 27 38 bd 01 91 05 3e 71 17 18 be
       -0.19600679 -0.044959333 0.13043596 -0.14852692
000150 1a f0 18 3b a3 d2 63 3a 52 2c 93 3c 18 ef ff bd
       0.002333647 0.000869075 0.01796547 -0.124967754
000160 78 31 97 bd c3 af 02 bd 9e 29 7d bd d9 9b 29 3d
       -0.07382482 -0.0319059 -0.061807267 0.041408394
000170 5b 25 5a be 92 2e d5 bc 33 74 bb bd 1d 85 4f 3e
       -0.21303312 -0.026023183 -0.091530226 0.20265622
000180 97 4f b1 bd 60 a7 55 be 4a 0e 9b 3d ec 50 7c 3d
       -0.08657759 -0.2086463 0.07571085 0.06160061
000190 a5 2f fb bd 24 59 c2 bd b6 e7 0c be 0c 2f 93 bd
       -0.12264947 -0.094896585 -0.13760266 -0.07186708
0001a0 cf 57 1a 3e 06 3a b8 bd 5d 29 71 bd 4c a5 b8 bd
       0.15072559 -0.08995442 -0.058877338 -0.09015903
0001b0 c3 1d 21 bb f2 64 06 bc 23 75 8a 3c b1 19 98 3d
       -0.002458439 -0.008202778 0.016901558 0.07426775
0001c0 b0 2c b1 bc 87 2a 9a be cc 9d 15 be 6a 7d a3 bd
       -0.021627754 -0.3011057 -0.14610976 -0.07982905
0001d0 56 7d cb 3c b0 99 c2 3c bb e1 24 3e 01 d2 db bd
       0.024840038 0.023754925 0.16101734 -0.107334144
0001e0 e7 54 6b 3d 82 3b 03 38 6c 06 8b be 3f eb 49 3d
       0.057454016 3.1288255e-05 -0.27153337 0.049296614
0001f0 90 d4 8c 3d 4c c4 de 3c 48 75 52 3e 69 3e 2d 3e
       0.068764806 0.027193211 0.20552552 0.16918339
000200 fd 9a 09 3e fa e5 80 be 04 2a a9 bd 0f e8 29 3d
       0.1343803 -0.25175458 -0.08259967 0.041481074
000210 85 b9 8d 3d e5 dc 88 bd 19 a0 f2 3d 03 08 c7 bd
       0.06920151 -0.06682757 0.118469425 -0.09718325
000220 28 a3 16 be e1 e8 45 bd f5 f6 a3 3c ce d0 15 3e
       -0.14710677 -0.048317794 0.02001522 0.14630434
000230 56 aa 38 bc ad 48 3d 3d 54 cd f5 3d 38 80 07 be
       -0.01127108 0.046211887 0.12002054 -0.13232505
000240 39 58 bf bb a7 b1 8d 3d 22 09 4d be e1 a0 ac bc
       -0.0058393744 0.0691865 -0.20023015 -0.021072807
000250 b4 c2 17 bd 5e f6 31 bd 33 df 4e be 26 75 73 3d
       -0.037050918 -0.043447845 -0.20202331 0.059437893
000260 75 2a 0e 3e d6 7b 14 3e 74 06 39 bd ee 1d 2f 3e
       0.13883384 0.14500365 -0.04517217 0.17101261
000270 64 5a ea bc 1b 85 cc bd f7 a7 e4 3d b9 59 c9 bd
       -0.028607555 -0.09986325 0.11164849 -0.09831566
000280 e6 a8 f2 bc 89 4e f3 3c f1 76 6f be 89 37 1c be
       -0.029621553 0.029700534 -0.23385216 -0.1525556
000290 f3 ae 1d bd 76 94 97 be 1c 13 f6 3b ea 5a eb 3c
       -0.038496923 -0.29605454 0.0075096022 0.028729875
0002a0 e6 2a ae bd ea 50 e0 bd af 50 6d be ac d9 81 3e
       -0.08504276 -0.10952933 -0.2317531 0.25361383
0002b0 bd 38 11 3c c1 ca 10 3e 18 ae 10 be e7 7e 4f be
       0.008863625 0.14139844 -0.14128911 -0.20263253
0002c0 55 27 a6 3d a9 dc 47 bd ae d3 05 3e fc 56 f1 3c
       0.08112971 -0.048794422 0.1306903 0.029460423
0002d0 9b 53 b8 3c fe 5e 4d bd d5 4d bd 3d 66 06 cc bd
       0.022500804 -0.05013942 0.09243361 -0.09962158
0002e0 af e2 8d 3c 90 cd 60 3e 5c 23 0e be e1 1a 60 bd
       0.017320005 0.21953416 -0.13880676 -0.054713134
0002f0 af 37 e8 3d 64 86 b1 3c 0c 18 4b bd 9d 2b 89 3d
       0.11338746 0.021670528 -0.04958348 0.06697772
000300 36 09 89 39 ac 94 08 3e c1 23 19 3d 18 e6 95 3d
       0.0002613754 0.13337964 0.037387613 0.073192775
000310 39 93 ad 3c 4e e9 58 3e 05 cf 56 3c bd 53 8a bd
       0.021188365 0.21182749 0.013110881 -0.06754253
000320 4d 30 7a 3e 26 b8 7a 3e 5b 26 78 be 3c aa 2d 3c
       0.24432488 0.2448431 -0.24233381 0.010599669
000330 5b da 3c 3e 15 f5 1c 3e 55 99 08 be ae b9 3a bd
       0.18442671 0.15327866 -0.13339742 -0.045587234
000340 22 b4 bb 3a e9 6b 3b be bb 65 70 3d 52 f8 8d be
       0.0014320652 -0.18302883 0.058690768 -0.27728516
000350 cc 97 f7 3d 8d 09 3f bd 86 ab 78 3d 1a 7a 72 be
       0.120895 -0.046639968 0.060710452 -0.2367939
000360 92 81 95 bc 6a f3 86 bd a0 fc ac 3d 72 a5 22 3d
       -0.01825026 -0.06589396 0.08446622 0.039708562
000370 cb 5f 19 3d ac 3d 40 3e 6c 04 71 3e a8 d0 7b 3e
       0.03744487 0.18773526 0.23536843 0.24591315
000380 e2 f2 b2 be 2b 50 64 3e 92 75 d5 bd 05 2e 60 3d
       -0.3495093 0.22296207 -0.104228154 0.054731388
000390 83 61 27 3e 8b 22 00 3e 4c 0d 35 bd b2 e3 b7 bd
       0.16345792 0.12513177 -0.044202134 -0.08978976
0003a0 60 ba 22 3e 6e 3c c3 bd 8f 38 65 bd 8e 8b 4f bd
       0.15891409 -0.095330104 -0.05596214 -0.0506702
0003b0 a0 82 6f 3e 4b 2a db 3c f0 45 26 3e b3 2e 83 bd
       0.23389673 0.026753565 0.16237617 -0.064053915
0003c0 89 d9 99 be a4 ee 4c 3e a3 3d e5 3d 05 59 d1 bc
       -0.3004878 0.20012909 0.11193397 -0.025555143
0003d0 fa f8 6c 3d 9b f8 22 bd 35 3a d3 bc 8b 3c 75 bd
       0.05785463 -0.03978787 -0.025784591 -0.05987219
0003e0 64 fe 12 be c5 e8 7a bd ba 56 1c be d6 34 ea bd
       -0.14354855 -0.061257143 -0.15267459 -0.11435859
0003f0 1d 22 10 be d2 44 24 be 79 3f 12 3d 14 2d cd bd
       -0.14075513 -0.16041878 0.035705063 -0.100183636

bias f4 [256]
000000 0c 3e a4 3d 72 f4 9d be 70 3d a7 bd 12 b2 0e be
       0.08019647 -0.3085056 -0.08166015 -0.13935116
000010 6c 03 8a bc 65 e7 17 3e e6 1c 7c 3c 36 28 02 be
       -0.016847335 0.14834364 0.015387749 -0.12710652
000020 e9 93 00 be ef e5 e9 be db d9 16 bf b2 70 da be
       -0.12556423 -0.45683238 -0.5892617 -0.42664105
000030 3c a6 d6 be b5 3b 9f bd 0d fb 31 be 85 44 21 be
       -0.41923702 -0.0777506 -0.17380925 -0.15748794
000040 bd bf 19 bf 29 62 f6 3d 54 f9 5a 3e 05 4f 9c be
       -0.60058194 0.12030441 0.21384174 -0.30529037
000050 84 25 f0 be f4 9e fd 3d 26 25 30 be 4f d4 e7 be
       -0.46903622 0.123838335 -0.17201671 -0.45279166
000060 c4 48 5c be 81 30 bc 3d 5e d5 0a bf 87 b0 2d 3d
       -0.21512133 0.09188939 -0.5423182 0.042404678
000070 a3 69 53 3d 02 ab 5a 3d c0 b5 04 bf 4b 46 36 bc
       0.051614415 0.053385742 -0.5183983 -0.011125158
000080 7c 66 2a be f8 4b a5 be a0 b7 81 be 5a 23 15 bf
       -0.16640657 -0.32284522 -0.25335407 -0.5825707
000090 b4 68 5c be 50 0a 2b bd 51 b5 58 bd 4e 0f a2 be
       -0.21524316 -0.04175788 -0.05290729 -0.31652302
0000a0 47 be 60 be b4 b1 20 3e 42 fd c4 3d 73 b5 94 be
       -0.21947585 0.15692788 0.096186176 -0.29044685
0000b0 aa 9a 24 be 82 c4 b7 be 8f 34 69 be 8b 64 d1 be
       -0.16074625 -0.3589211 -0.22773956 -0.4089702
0000c0 60 d3 7e 3d 6c 70 b0 be c1 ee 19 3e b6 08 1d be
       0.0622133 -0.3446077 0.15032484 -0.15335354
0000d0 d7 fa 00 bf dd 22 bd be 6e d8 03 3e 6f 44 83 bd
       -0.5038275 -0.3694066 0.1287553 -0.06409537
0000e0 51 cf a3 be 81 34 be be c6 4d c8 be 2e 8e e2 bd
       -0.31994107 -0.37149432 -0.39121836 -0.11062275
0000f0 e8 8c ba 3d 0f 6f a0 3e 28 51 18 be d9 af 62 3d
       0.09108907 0.3133473 -0.14874709 0.055343483
000100 26 88 ac 3e 64 3f bf 3d 96 ed bf be 95 f5 4b 3d
       0.33697623 0.09338263 -0.3748595 0.049794752
000110 9e b8 55 be 0f 99 02 be 57 e7 18 be bf 1e ff bd
       -0.20871207 -0.127537 -0.14931999 -0.12457036
000120 ea b2 9f be 7c 86 4c be d2 f2 cd 3d 54 3b e9 3d
       -0.31191188 -0.19973177 0.1005608 0.11388269
000130 aa 10 38 3e 3d 51 ba be df 0c 92 3e 50 d4 de bc
       0.17975107 -0.36390105 0.28525445 -0.027200848
000140 bd 0c eb be 85 ad 8a be 43 e4 d5 be fe e0 2d be
       -0.45908156 -0.2708551 -0.41775712 -0.16980359
000150 8c f6 97 bd df b1 ec 3d b5 06 51 bd 57 b1 d5 bd
       -0.07420072 0.11557364 -0.051031787 -0.104342155
000160 f3 0a 5c be 94 9b f2 be d9 44 50 bc bc 9c 69 be
       -0.21488552 -0.47384322 -0.012711727 -0.22813696
000170 c3 08 bc 3c 18 bf 7d bd e3 57 44 be c2 f3 b5 bd
       0.022953397 -0.06194982 -0.19174151 -0.08884384
000180 6d 6e 55 3e 29 13 12 bf b1 81 07 bf 6c 33 8e 3e
       0.20842905 -0.57060486 -0.5293227 0.27773607
000190 78 2b 3d 3e be a1 52 be 1b ee af be 91 94 c6 be
       0.18473613 -0.20569512 -0.34361348 -0.38785222
0001a0 85 fa ee bd 23 82 92 3e c8 70 ce bd 99 e0 1c 3e
       -0.116688766 0.2861491 -0.10080105 0.15320052
0001b0 fc 95 1f 3c 8f 4e 8e be 97 5e b4 be e7 c4 75 be
       0.009740349 -0.2779431 -0.35228416 -0.24000894
0001c0 d2 5c 9c be 76 6f 53 be 1f 20 93 3e 37 7a 50 bd
       -0.30539566 -0.20647988 0.28735444 -0.050897803
0001d0 2e f8 3c be bc bf 92 3e db 97 2f be 40 49 09 bd
       -0.18454048 0.28661907 -0.17147772 -0.033517122
0001e0 e1 36 da 3d ad 24 f5 3d f8 9f ae bc 65 ea c6 be
       0.106549986 0.11969886 -0.021316513 -0.38850704
0001f0 ba 8e 21 be 0c 60 cf bd 36 ba f2 3c b9 28 66 3d
       -0.15777102 -0.10125741 0.029629808 0.05619118
000200 e9 38 2b 3e 95 fb 85 3d 0d 84 63 3e 04 64 b4 bd
       0.16720928 0.06542126 0.22218342 -0.08808139
000210 4c 7a b5 bd 14 d6 3f 3e ea 69 96 be 10 09 16 bd
       -0.08861217 0.18734008 -0.2937768 -0.036629736
000220 a9 5b c6 be 26 f7 30 be 9b 32 2a be 6d 37 44 bd
       -0.38741806 -0.1728178 -0.16620867 -0.04790442
000230 67 74 0d bd 3c 7d bc be 2a 4b c9 be 3d 7c a4 be
       -0.034534838 -0.36814296 -0.39315158 -0.32126036
000240 e0 26 52 be ad 2e 6f 3c 6b f4 bb 3d 95 cc 26 be
       -0.20522642 0.014598531 0.091774784 -0.1628898
000250 7b d1 0a be 85 17 3b be b8 00 41 bc a3 21 c7 bd
       -0.13556473 -0.1827069 -0.0117799565 -0.097232126
000260 7c 98 78 3d 0a 39 8e be 0a a6 b0 3d ae 9e d6 be
       0.060692295 -0.27777892 0.086254194 -0.41917938
000270 b6 e8 0f bf 81 1e 2b bc 35 fd 05 3d 59 dc 05 bf
       -0.56214464 -0.010444284 0.03271218 -0.5228935
000280 86 f6 8b 3d 66 48 fa 3c 41 8b 86 be 77 92 34 bd
       0.0683413 0.0305521 -0.26278117 -0.044084992
000290 ef 96 5a be 00 67 96 3d 3a fa ad be 7e 0b bf be
       -0.21346639 0.073438644 -0.3397997 -0.37313455
0002a0 96 41 fb 3c ef 4a 9d be 9f 06 30 be 32 0b 6f 3d
       0.030670922 -0.30721232 -0.17190026 0.058360286
0002b0 93 fe 88 3d cf a3 ec bd b0 d2 5b be e3 f8 b8 bd
       0.06689181 -0.115546815 -0.2146709 -0.090318464
0002c0 15 4e 3e be 4a b6 84 3c 10 8f be 3d 73 6e 92 3d
       -0.18584473 0.016200203 0.09304631 0.07149973
0002d0 0b 77 d7 be 36 d6 24 3e 4e b4 eb be 59 45 71 3e
       -0.4208301 0.1609734 -0.46036 0.2356161
0002e0 8b b3 01 bf e8 4b 5e be 27 47 8f be 90 04 d7 3d
       -0.50664586 -0.21708643 -0.27983972 0.10498917
0002f0 47 5e 91 3e dc df 38 be e9 19 00 be db f5 4b 3d
       0.2839224 -0.18054146 -0.12509884 0.049795013
000300 05 ae f5 bc e8 07 d9 3e 45 e5 08 bf 5e 06 b8 3d
       -0.029990206 0.42388844 -0.5347484 0.089855894
000310 32 62 61 be af 21 44 be 69 d2 31 3e 22 3a 81 be
       -0.22010115 -0.19153474 0.17365421 -0.25239664
000320 21 5d ce be fa 3f 3f bd fa d8 bf be ca 1c bf be
       -0.40305427 -0.046691872 -0.37470227 -0.37326652
000330 65 e0 91 bd 20 7e d8 bb ec f5 16 be d5 fe cf 3c
       -0.07122878 -0.006606832 -0.14742249 0.025390068
000340 5e 46 d2 be f5 d3 91 be fc 68 82 be 13 7e 12 bd
       -0.4106931 -0.28482023 -0.25470722 -0.035764765
000350 b1 7c a9 bd 3a 40 7b bd 20 3d b6 bd 83 94 db 3c
       -0.08275736 -0.061340548 -0.088983774 0.026804214
000360 12 1f 0a bf 91 3d 8e be 60 26 9c be ab 30 b4 3e
       -0.5395366 -0.27781346 -0.30498028 0.3519338
000370 97 5a 44 be d5 29 37 be 80 2b ca bd ad b0 af bd
       -0.19175182 -0.17887051 -0.09871578 -0.0857862
000380 ea cd f6 bd 13 7f 19 bf ec 4a 79 be da 13 8c be
       -0.12050994 -0.59959525 -0.24344987 -0.27358896
000390 b7 d8 e6 bc 0a 84 23 be 9b b1 dd be f7 f0 73 3c
       -0.02817951 -0.15968338 -0.43299565 0.014888993
0003a0 9d e2 70 be ff bd 81 bd 28 a4 3a 3d 21 b7 fb be
       -0.23523946 -0.06335067 0.045566708 -0.49163154
0003b0 f4 29 ae 3d 23 d2 be 3d 55 2c a4 be 68 ff 2a bd
       0.08504096 0.09317424 -0.32065073 -0.04174748
0003c0 41 47 9d bd c5 e2 52 be e1 7e 3b bf 08 36 88 be
       -0.07679606 -0.20594318 -0.73240477 -0.26603723
0003d0 4b eb 2b be 48 6d 0a be ad 64 29 be 9b da 01 bd
       -0.16788976 -0.1351825 -0.16542311 -0.03170262
0003e0 39 c5 ee be 5e 92 de be db f9 a2 be 5e 89 a4 be
       -0.46634844 -0.43471044 -0.3183125 -0.32136053
0003f0 6a 66 da bd 1e 55 e9 be 97 14 3d bd 94 c5 f9 bd
       -0.10664065 -0.45572752 -0.046162214 -0.12195888

weight f4 [128, 256]
000000 10 2e 9a bd 74 7b 62 bd 2a 2e 0f 3e 48 2d b0 3d
       -0.07528317 -0.055293515 0.13982454 0.08602387
000010 55 f2 d8 3d da 7d 43 be 0d cd 05 bd f7 13 df 3d
       0.10593096 -0.19090977 -0.032666255 0.1089248
000020 a5 03 83 3d 43 96 d2 bd 95 93 e6 3d 2a e9 52 bd
       0.063971795 -0.102825664 0.11258618 -0.051491894
000030 13 64 97 3d 03 69 d7 bc 04 4b 4c bd d8 d3 1a be
       0.073921345 -0.02629519 -0.049876228 -0.15119874
000040 30 86 52 3e 6f e4 15 be 25 b7 1c bd eb db 25 3d
       0.20559001 -0.14637922 -0.038260598 0.040492933
000050 bc 25 d9 3d ca 5d 88 bc 85 07 93 3c df bb e5 3d
       0.106029004 -0.016646285 0.017947922 0.11217474
000060 fd 99 7d 3d 8a 13 76 bd 8a 44 1f bd fd e7 7a bc
       0.061914433 -0.060077228 -0.038883723 -0.015314099
000070 e5 2d 99 bd aa 6d 8f bd 87 55 53 bd c6 7e 91 be
       -0.07479457 -0.07003339 -0.051595237 -0.28417033
000080 1c d5 1c 3d 1d 48 06 3d 29 ea 0e bc c4 1e c0 3d
       0.038289174 0.032783616 -0.00872282 0.09380868
000090 45 a6 57 3d b4 51 32 bd ae 21 bc 3d 55 2a 86 3c
       0.0526488 -0.04353495 0.091861114 0.016377607
0000a0 cd bb 4f bd 4a 72 36 be 42 00 62 bd 35 53 90 bd
       -0.05071621 -0.17817035 -0.055176027 -0.070471205
0000b0 83 e1 b1 3d 0c 29 08 bc 7b 7c cd bb 64 1f 13 be
       0.08685591 -0.008310568 -0.0062709427 -0.14367443
0000c0 4c e3 3c be 8c 74 86 3d 89 3e 89 bc a7 3c 93 3c
       -0.18446082 0.06565198 -0.016753452 0.017973257
0000d0 2d 6f 85 3d 2d 32 dd bb ea 2c 73 bd 16 c9 93 bd
       0.06515346 -0.006750366 -0.059369005 -0.072160885
0000e0 2b 67 6b 3d 2d 5f ec 3b ef 23 7a 3e ec fd 6c 3e
       0.057471436 0.0072134943 0.2442777 0.23143739
0000f0 9f 43 03 3e 47 55 2f 3c 9f 52 12 3d f7 78 fd bc
       0.12818764 0.010701484 0.035723325 -0.03094147
000100 ac 2d a7 bc f1 e0 18 3e d1 a2 55 3e 34 d2 15 be
       -0.02040752 0.14929558 0.20862891 -0.14630967
000110 7b a7 1e 3e 87 58 8d bc af 67 14 3e 4c 60 ac bd
       0.15493576 -0.017254127 0.14492677 -0.08416805
000120 f2 2f 94 be 53 b7 2b bd 3f f1 a1 3d 76 37 3a 3d
       -0.2894283 -0.04192288 0.07907342 0.045463048
000130 2b 26 db bb 3c dc 84 bd 87 61 e5 3b 3a 53 ea bd
       -0.0066878996 -0.06487319 0.0070001516 -0.114416555
000140 93 46 8b 3e 90 02 1b bd 30 4a 77 3c d3 24 1f be
       0.2720228 -0.03784424 0.015093371 -0.15541391
000150 f5 61 72 be c7 61 02 3e 80 86 10 be 66 13 04 be
       -0.2367018 0.12732612 -0.14113808 -0.12898025
000160 26 5d 89 3b 88 52 a6 bd 05 55 5b 3c 7a e6 5b 3d
       0.0041920124 -0.0812121 0.013386969 0.053686596
000170 44 ec 95 3d e9 0d b5 bd 5f 8e 03 3d 3f 0b e7 3c
       0.07320455 -0.08840544 0.032118198 0.028203605
000180 77 15 0e 3d 79 35 96 bd 91 6c 9b 3d cb 66 bd bd
       0.03468844 -0.07334418 0.07589067 -0.09248122
000190 46 e4 08 3d fb d1 cf 3d 07 49 4e 3d ad 9f e5 bd
       0.033420824 0.101474725 0.050362613 -0.11212096
0001a0 12 8d 11 3d 9f 7c 62 3d ff 4f 07 3e a9 74 bc bc
       0.035534926 0.05529463 0.1321411 -0.023004847
0001b0 1f 18 bb 3c 9e 06 90 bc 5c ec f7 3d 36 12 a5 bd
       0.02283865 -0.01758128 0.12105629 -0.08060114
0001c0 75 1c 24 3e 3a 48 d3 bd 39 62 ef bc 38 af 14 3d
       0.1602648 -0.103165105 -0.02922164 0.036299914
0001d0 d3 33 98 3d ba fc 82 3d 40 7b 9d bd b7 f8 7a 3c
       0.0743176 0.0639586 -0.07689524 0.015318087
0001e0 d9 30 c7 bc 3a 79 9a 3d 17 66 84 3d 58 3a 81 3c
       -0.024315285 0.075426534 0.064647846 0.01577489
0001f0 2b b7 cc 3d e3 b5 f1 3d fb 22 59 3c 54 24 80 3c
       0.09995874 0.1180227 0.013252969 0.015642323
000200 cc e4 5e bc e3 6a 11 be 7f 8d 5a 3d 40 d5 0c be
       -0.013604354 -0.1420093 0.053357597 -0.13753223
000210 64 48 d4 3d a7 93 24 be 65 b5 41 bc 04 5f d2 3c
       0.1036537 -0.1607195 -0.011823033 0.025680073
000220 13 12 1b 3e ce 2f f7 3d 25 92 8b 3e 3b 9d 57 bd
       0.15143614 0.12069665 0.27259937 -0.05264018
000230 66 8d fa bd 8f 85 32 3d a8 72 8e bd e4 ce bf 3d
       -0.12234001 0.043584403 -0.06955463 0.09365633
000240 70 39 08 bd 36 80 0a be fc 9b f6 3d 71 58 52 be
       -0.0332579 -0.13525471 0.120414704 -0.2054155
000250 6c 5c 21 bd a3 d1 02 3e 7e f6 27 be 32 5e 89 bd
       -0.03939478 0.12775283 -0.16402623 -0.067074195
000260 63 a9 88 bd b5 75 3b 3d 89 ae e3 bd af 10 87 bd
       -0.06672933 0.04576655 -0.11117274 -0.06594979
000270 2a 48 d4 bd d9 51 27 bd 85 0b 2d 3d 54 a4 c5 bc
       -0.10365327 -0.04084954 0.042247314 -0.02412621
000280 b1 68 1c bd b7 14 b3 bc 09 6d 1b 3e 63 5d 11 be
       -0.03818578 -0.021860464 0.15178312 -0.1419578
000290 df a6 5a be 09 2b d4 3d 0f f5 19 be ef 1b b1 bd
       -0.21352719 0.10359771 -0.15034889 -0.08647906
0002a0 5f 5c 13 3b 26 46 a9 be 4a 9f de 3d b2 45 57 3d
       0.0022485477 -0.33061332 0.10870226 0.0525567
0002b0 5c 80 32 ba c4 1f 9a bd 13 f6 11 3e 70 2e 17 3c
       -0.0006809288 -0.0752559 0.14254026 0.00922738
0002c0 a4 11 00 3e 77 ad 3b be 42 d3 bf bc ff e2 9b 3d
       0.1250673 -0.1832789 -0.023416165 0.076116554
0002d0 f2 78 7d bd 1c 90 d9 3d 1e cd 00 be b2 44 a5 3d
       -0.06188292 0.1062319 -0.12578246 0.08069743
0002e0 e1 1e d6 3d c7 ce d6 3c 84 98 e0 bd 4b d4 9d be
       0.104551084 0.026221646 -0.1096659 -0.3082603
0002f0 0d c6 58 bd 5c dd af bd 00 5f 1f 3d df a1 d0 bd
       -0.05292325 -0.08587143 0.03890896 -0.101871245
000300 8d 28 2d bd 69 9c 0f bd a6 74 e1 3d 2e ef 7f bd
       -0.042275 -0.035061274 0.11008577 -0.06248396
000310 89 e1 51 3e 95 7b 19 be f0 98 a8 bd 57 0f f9 3d
       0.20496191 -0.14988549 -0.082322955 0.12161129
000320 9e b6 b0 3d 67 4f ae 3c 8d dd a3 3d 05 bf e9 bb
       0.086285815 0.021278096 0.08001242 -0.007133367
000330 7b 43 aa 3d 5a f5 a3 3d fe d2 07 bd 5e 98 9b 3c
       0.08313652 0.080057815 -0.033160202 0.018993553
000340 e5 27 87 3d f1 ae 4d 3d bf ec 06 3e 35 4a 8d bd
       0.06599406 0.050215665 0.13176249 -0.068989195
000350 fb a1 9c 3d d1 63 00 3e 44 2c 47 bd 78 9e 8a 3d
       0.07648083 0.12538077 -0.0486262 0.06768507
000360 e2 a6 97 3c 90 35 9a 3d 6d 88 93 3d 62 90 33 bd
       0.018512193 0.075297475 0.072037555 -0.043838866
000370 8a 73 a2 be c0 00 16 bd c5 ad 5d bd 0e cf a7 3d
       -0.31728774 -0.03662181 -0.054120798 0.081937894
000380 a7 fc 83 3e 3e 10 6d bd 56 8d 1c 3e 32 5f d9 bb
       0.25778696 -0.057876818 0.1528829 -0.0066336626
000390 46 6c 63 be 19 29 72 3c aa c0 aa bc 22 79 e1 3d
       -0.22209272 0.014780306 -0.020843823 0.110094324
0003a0 05 26 5c be eb 58 8e bc 80 45 37 3d 41 c2 db 3d
       -0.21498878 -0.017376384 0.044744015 0.1073041
0003b0 69 eb bb be 55 d4 45 3d bc 28 bf 3b 6c 20 0c be
       -0.3670304 0.0482982 0.0058337133 -0.13684243
0003c0 39 bf 92 bd e6 8b ba bd 7b 2e fb 3c b1 30 82 3d
       -0.07165379 -0.09108715 0.030661812 0.063569434
0003d0 04 50 5d bd 2e 2f c9 3c cd 02 28 be 45 8b 26 be
       -0.054031387 0.02455863 -0.16407318 -0.16264065
0003e0 d2 91 82 bd d6 11 a0 3d f9 ba 33 bb 67 70 7e 3e
       -0.06375469 0.07815902 -0.0027424677 0.24847566
0003f0 90 36 e0 3d 33 69 e5 bd ee a6 e4 bc 09 99 f9 3c
       0.10947907 -0.11201706 -0.02791163 0.03046848

bias f4 [128]
000000 7e 9c ab 3c 64 d3 96 be 09 f7 4a bd be 83 ca bd
       0.020948645 -0.29458153 -0.049551997 -0.09888409
000010 41 6a 00 be fb 23 b1 bd 7e b3 a5 be 92 fb bd 3d
       -0.12540533 -0.08649441 -0.32363504 0.09276499
000020 9a 7c 6e be c4 22 c9 be b3 52 a7 bd d7 31 dc bd
       -0.23289719 -0.39284337 -0.081700705 -0.10751694
000030 ac 60 f1 be 21 e6 fd bd 61 21 d9 bc e2 ff 94 bd
       -0.47144067 -0.12397409 -0.026505174 -0.07275368
000040 9b a4 04 be 11 4c ad be d8 c4 cb bc 82 1d 06 3e
       -0.12953417 -0.33847097 -0.024874136 0.13097194
000050 49 dd cd 3b e5 4c 73 bd 98 9b 08 3e bf 6f 09 bf
       0.0062824828 -0.059399504 0.13340604 -0.53686136
000060 c6 51 ee bd 91 4d ac 3d 67 92 88 bd 57 1f 2c be
       -0.11636691 0.08413232 -0.06668549 -0.1680883
000070 f1 6c c7 bd b1 99 0a 3d 7c 15 e1 3b 22 be cf be
       -0.09737576 0.033837978 0.006869016 -0.40574747
000080 fe 75 d3 bd 13 ed 7b be 42 ae 53 3d a0 91 05 bf
       -0.103252396 -0.24602155 0.051679857 -0.5217533
000090 3f bb 93 be 18 8e 9a bb 4e e9 f6 3d 78 e7 90 be
       -0.28853795 -0.004716646 0.12056218 -0.28301597
0000a0 03 9f 4b be ca de a2 bd 19 bc 8d be 7f 62 34 3d
       -0.19884877 -0.0795265 -0.2768257 0.044039246
0000b0 b5 a0 67 be 8c da 36 be c8 2c 5f be df fe 92 be
       -0.22619899 -0.17856807 -0.21794426 -0.28710076
0000c0 48 aa bf 3b 3d 2e 3b bd 88 f8 fc bd ca 81 6f be
       0.0058491565 -0.045698393 -0.12352091 -0.23389354
0000d0 58 9c a0 bd db 9a 7b 3c f2 90 d9 bc 08 0d 22 be
       -0.0784232 0.015356745 -0.026558373 -0.15825284
0000e0 5c 77 5c be 1e 80 86 bd 6b 41 46 be 8d 4d 7f 3c
       -0.21529907 -0.06567405 -0.19360892 0.015582454
0000f0 d9 8b 01 bc 17 38 e6 be 27 bd de bd a5 33 fb be
       -0.007906877 -0.44964668 -0.10875922 -0.4906284
000100 a3 a6 04 bd f9 a9 79 be fd 9d 80 3d 14 65 75 be
       -0.03238548 -0.24381246 0.06280134 -0.2396434
000110 da 72 fd bd 7a e7 bd bd 08 49 8c be a6 7a 86 be
       -0.12375422 -0.09272666 -0.27399468 -0.26265448
000120 ab 81 05 be 1e 32 d8 be 28 a6 51 3d 50 dd 16 3d
       -0.13037746 -0.42225736 0.05118385 0.036832154
000130 0d b3 f8 bc da 5c 17 be 18 ba e1 bd c5 a2 7d 3c
       -0.030358816 -0.14781514 -0.11021823 0.015480702
000140 b6 6a d0 bd 70 58 c1 be c7 e5 b4 bd d8 9d 18 be
       -0.101766035 -0.37762785 -0.08832889 -0.14903963
000150 d4 f0 d4 be 45 53 81 3b 5b ed 1c be 85 d5 6e be
       -0.41589987 0.003946694 -0.15324919 -0.23323639
000160 59 af 08 be 15 84 24 be 10 9a a0 be 8f d0 da bd
       -0.1334814 -0.1606601 -0.3136754 -0.10684311
000170 58 fc 1f 3d 6f 6e 87 be ee f2 19 bd eb 3a bb bd
       0.039059013 -0.26451442 -0.03758519 -0.09142097
000180 fd ec ec be 6f be a2 bd d6 ff 62 be 0e 8d b2 be
       -0.46274558 -0.079464786 -0.22167906 -0.3487324
000190 76 19 0f 3c 20 5a 89 3d 8e 58 ac be f7 27 c3 be
       0.008734098 0.06706643 -0.33661312 -0.38116428
0001a0 e0 98 8e be c3 be f7 bd 34 6e fe 3c fc 5b ea 3d
       -0.2785101 -0.12096932 0.031058408 0.11443326
0001b0 4a b4 28 be 41 94 03 3d 04 de 0c bf f4 9f 82 be
       -0.16475025 0.032123808 -0.5502627 -0.2551266
0001c0 b9 8d 75 be 45 35 c6 be 90 3d 8c bd ff 07 26 be
       -0.23979844 -0.38712516 -0.068476796 -0.16213988
0001d0 39 d3 07 bf 88 3c 6d be 47 89 85 be 6b 15 c4 bd
       -0.53056675 -0.23167622 -0.26081297 -0.09574398
0001e0 6f 21 43 3d 63 47 46 bd 27 9c 0d be e8 fe bc be
       0.047639307 -0.048407923 -0.13829099 -0.36913228
0001f0 52 83 44 be 68 5f 87 bd ef d3 e8 be 0a 07 3e be
       -0.1919072 -0.06609994 -0.45474193 -0.18557373

weight f4 [128, 128]
000000 91 b5 f2 bc 52 44 46 bd 1f 1c d1 bd 2d 46 44 bd
       -0.029627593 -0.048405 -0.10210442 -0.047918487
000010 f5 bb 85 3d 98 c4 12 3e 86 0b 9b bd ba 86 93 be
       0.065299906 0.14332807 -0.07570557 -0.28813726
000020 94 61 16 3e 7f 20 6d 3d 18 c3 44 3d 63 cf 2a 3e
       0.1468566 0.05789232 0.04803762 0.16680674
000030 89 84 03 3d 1a 6e 9c 3d 58 b6 f2 bd d5 65 2d be
       0.032108817 0.07638188 -0.118511856 -0.16933377
000040 a3 63 bd bc d1 3d 28 3e bf ba be 3a 51 05 bd be
       -0.0231188 0.16429831 0.0014551504 -0.3691812
000050 e0 2c 11 3c a6 ae 44 be c1 d8 fa 3c 80 77 1b 3d
       0.008860797 -0.19207248 0.030620934 0.03795576
000060 fd 4d d2 3d bf 3f e1 bc 17 73 38 3d 30 7d 4c bd
       0.10268781 -0.027496217 0.045031633 -0.049924076
000070 ce 27 2a bd 47 4f 9f bd 50 26 fe bd 33 20 9f 3d
       -0.041541867 -0.07778793 -0.12409651 0.077698134
000080 03 3d 72 3c 4b f6 9e 3c d1 e6 c5 bd 3e 13 0a 3e
       0.014785054 0.019404551 -0.09663165 0.13483903
000090 e9 75 1b bd a1 56 45 3c 9d 41 15 be 58 50 0d 3e
       -0.037954245 0.01204458 -0.1457581 0.1380018
0000a0 a4 a2 60 3d 5a 48 5f 3e c3 7c 65 3d 4a 68 49 be
       0.054842606 0.21804944 0.056027185 -0.1966869
0000b0 ad d5 4f bc 1d c0 09 bd 61 c5 13 3d d9 7f 8a 3d
       -0.012685222 -0.03363048 0.036076907 0.06762666
0000c0 35 9e 11 bd 0a b5 4e bc 46 ac 97 bd 81 46 1c 3e
       -0.03555127 -0.012616405 -0.074059054 0.1526127
0000d0 00 95 21 3e 16 b4 10 bc 57 57 29 bd 74 be d2 bd
       0.15779495 -0.008831998 -0.04134306 -0.10290232
0000e0 39 fc 1b be e4 9b b8 3c 2e 7b da 3c 56 1d 53 bc
       -0.15232934 0.022535272 0.026670065 -0.012885412
0000f0 83 70 49 bd d3 54 59 3e 80 c0 a9 3c 59 85 27 3e
       -0.049179565 0.21223764 0.020721674 0.16359462
000100 2c 17 15 be 97 cd 5a 3c b5 9c c5 bd ee ec 6b be
       -0.1455962 0.0133546805 -0.0964903 -0.230396
000110 cd ce 11 3c 86 7e 47 be 4c 8e 36 3d 96 58 fb 3d
       0.008899403 -0.19481859 0.0445693 0.12272756
000120 59 93 31 bd dc 9d 38 3d 5c f7 6d 3d ab 4e 68 be
       -0.043353412 0.04507242 0.05809723 -0.2268626
000130 e9 27 5d 3c a9 a7 2b bd 84 5d 17 bd 78 61 e1 bd
       0.013498285 -0.04190794 -0.036954418 -0.11004919
000140 1b f6 60 bd a8 be a5 3d fb c6 5f be 04 77 35 bd
       -0.054922204 0.080930054 -0.21853249 -0.044302955
000150 90 11 e6 3d 90 19 ff bd 2d 94 5f bd 62 85 60 3d
       0.112338185 -0.124560475 -0.05458467 0.054814704
000160 cf 1f fd 3d 8f bf 24 3e de 98 40 3e bf 5b 58 be
       0.12359583 0.16088699 0.18808314 -0.21128748
000170 6c 77 df bd 39 aa 4b 3d bf c7 a7 bc bb 16 8f 3d
       -0.1091145 0.049722884 -0.020480989 0.06986757
000180 4e f6 9d 3e 6a 7f 82 bd 8f 4a b9 bc 47 09 74 3e
       0.30851978 -0.063719586 -0.02261856 0.23831664
000190 e4 59 be bd 9c 68 45 bd ad e3 ca 3d 79 1c 5d 3d
       -0.09294489 -0.048195466 0.09906707 0.05398223
0001a0 b5 dd 87 bd 47 3c 0e be 14 a3 8e 3d cc b4 20 bd
       -0.06634084 -0.13890181 0.069646984 -0.03923492
0001b0 2b 80 11 be 11 18 82 be 0a 26 81 3e ee 44 24 3e
       -0.14209048 -0.25408986 0.25224334 0.1604192
0001c0 da 5a 06 3b 44 b7 8e 3e ee fa 26 3d c0 09 e3 3d
       0.002050093 0.27874196 0.04076665 0.11085844
0001d0 f8 58 24 3e 81 d0 0b 3d 06 a9 8a bd c4 0e 88 bd
       0.16049564 0.03413439 -0.0677052 -0.06643441
0001e0 85 8c eb bd 2b 8a c7 3c 2a aa e1 3a 56 60 ca 3d
       -0.11501411 0.024357876 0.001721685 0.09881656
0001f0 51 ef fa be ab 13 15 3d b0 01 67 bd b6 c8 9b 3d
       -0.4901071 0.03639571 -0.056398094 0.07606642
000200 4d 23 ff 3c b0 cd 30 3d d4 42 0f be 26 1c 8c bd
       0.031144762 0.04316491 -0.13990337 -0.068413064
000210 45 1d ad 3c f7 7d 40 3e a4 32 fc 3d 8a 58 62 bd
       0.02113212 0.18798052 0.123143464 -0.05526022
000220 44 d1 12 3e ef 3e 16 3e b6 e9 2e 3e 0a 4e a0 bc
       0.14337641 0.14672445 0.17081341 -0.019568462
000230 43 7f fc 3d bb 62 1e bd 9e 3b 13 bd dd 1e dd bd
       0.12328961 -0.038668375 -0.035945527 -0.10796902
000240 33 c4 68 bd a2 49 da 3d 3c fc 94 3d 63 0f db bc
       -0.056827735 0.106585756 0.072746724 -0.026740735
000250 1a a4 f6 bd 92 68 5b be 67 ef f7 bd ba af 36 3e
       -0.12043019 -0.21426609 -0.12106209 0.17840472
000260 78 a3 0b 3e c4 45 05 bd fe 7f 37 be ea e7 0f 3e
       0.13636577 -0.032537237 -0.17919919 0.14053312
000270 d2 ba a0 be 41 c8 3a be c5 cf f5 bb b0 29 3a 3e
       -0.31392533 -0.18240453 -0.0075015747 0.18179965
000280 f7 f7 ad 3d 24 68 8c 3e ca 60 10 be de be 2e 3e
       0.08494561 0.27423203 -0.14099422 0.17064998
000290 99 95 28 3e 40 4e f1 3d 05 87 8c 3c 16 a8 5b 3b
       0.16463317 0.11782503 0.017154226 0.0033516935
0002a0 f4 3b 55 ba 7e d7 2d 3e 91 b6 3d 3d 12 97 f2 3d
       -0.0008134239 0.16976735 0.046316687 0.118452206
0002b0 55 ff 38 bd 70 59 05 be 0a de 5e 3e 52 21 e6 3c
       -0.04516538 -0.13022399 0.21764389 0.02809206
0002c0 5e ea d1 bc 0b c1 0c 3c 83 ff e7 3d ab 05 d7 3d
       -0.02562445 0.008590947 0.11328032 0.10499128
0002d0 4b 17 80 3d 9a d5 90 3d 9e 1e 06 3d 73 3f 71 3e
       0.06254443 0.07071991 0.032744043 0.2355936
0002e0 45 aa 58 3e b5 5b 66 3d ad 79 de 3d c8 5b cd bd
       0.21158703 0.056239802 0.108630516 -0.100272715
0002f0 16 23 16 be e0 76 92 3d 68 4e 95 bd 4d a5 6d 3e
       -0.14661822 0.0715158 -0.072903454 0.23207588
000300 30 8c ee 3d fd 26 38 bd e2 1b aa 3c 28 39 76 bc
       0.116478324 -0.044959057 0.020765249 -0.015028276
000310 3a fa 7d 3d 3d df 9e 3d 0d 1b ec 3b 58 18 1f 3d
       0.062006213 0.07757423 0.007205373 0.038841575
000320 df 87 97 be 9d 9b 38 3e fe 1e a6 be 48 0f dd bc
       -0.2959585 0.18028112 -0.3244552 -0.026984826
000330 82 96 64 3c 6a 2d c7 bd 8a 15 b3 bc 5a 10 34 bb
       0.0139518995 -0.09725459 -0.021860857 -0.0027475567
000340 89 72 a0 3d 97 94 9a be 90 bc 1b 3d 54 6f 62 bb
       0.07834346 -0.3019149 0.038021624 -0.003455122
000350 c8 6b 7f 3e 36 b2 8a 3b 47 0c dc 3d 2f 36 75 ba
       0.24943459 0.00423267 0.10744529 -0.0009354082
000360 6e ec bd bb b4 c2 bc 3c 2f fb 9c 3c ae 6f 10 be
       -0.005796007 0.02304206 0.019162742 -0.14105102
000370 50 32 15 bd 2c 04 40 3e d0 ad 1b be 50 13 64 3d
       -0.036424935 0.18751591 -0.15203023 0.05568248
000380 29 99 90 3d 39 00 5c 3e f9 a7 81 3d bd 1c 5f 3e
       0.07060463 0.2148446 0.06330866 0.21788307
000390 57 c6 15 3c 5a 92 b4 bd 01 af 80 3e 7e 43 9f 3e
       0.009141526 -0.08816977 0.25133517 0.3110618
0003a0 54 c9 c6 3c 8a ae d2 ba 1f 45 34 be 1b 4a 39 3d
       0.024265923 -0.0016073745 -0.17604493 0.045236688
0003b0 50 5a fd bd 59 19 5a 3c 30 3e 34 3c e5 72 67 3d
       -0.12370741 0.013311707 0.011001155 0.056506056
0003c0 b2 d8 a0 bb bf 7f 6a 3e 7e e1 c0 bc 79 9b 1d 3d
       -0.0049086446 0.22900294 -0.023545023 0.03847835
0003d0 3d 74 65 3d 97 59 72 3d fd 5c b1 bd 4b 44 e5 3d
       0.056019057 0.05916747 -0.08660314 0.111946665
0003e0 35 ce c2 bd 44 74 64 be 9d f4 ac 3d 90 74 ae 3d
       -0.09511987 -0.22309977 0.08445094 0.08518326
0003f0 40 99 1b 3e 93 91 c7 3d f5 f7 06 3d fa ff 44 3e
       0.15195179 0.09744563 0.032951314 0.19238272

bias f4 [128]
000000 57 eb 79 be 9c 8b 87 be b7 2d 9c bd 91 ae da be
       -0.24406181 -0.264737 -0.07625907 -0.4271131
000010 83 dd 6e be 28 0d 85 bd 38 36 df bd 5f 1e b2 bd
       -0.23326688 -0.0649665 -0.10899013 -0.08697199
000020 c7 86 34 be af d4 ad bd a5 9d 98 bd 41 69 cb be
       -0.17629538 -0.08487832 -0.07451943 -0.3972874
000030 64 d6 c8 bd a9 a9 b8 bc 5b b9 05 3e 0f 9d 50 3d
       -0.09806517 -0.022541838 0.13058989 0.050931033
000040 de 87 43 be 3c a6 7b be 9b a0 b9 be bb c3 c0 be
       -0.19094798 -0.24575132 -0.36255345 -0.3764933
000050 8a 0a a1 bd 94 a4 a1 bd ff 84 c6 bd 76 c4 2d bd
       -0.07863338 -0.07892719 -0.09693336 -0.042423688
000060 fd 29 dc be 61 83 ca bd ff d8 07 be 89 b6 c4 bd
       -0.43000785 -0.0988834 -0.13266371 -0.09605128
000070 90 d5 1b 3e 24 04 58 3e ff be 29 be 5f ce ae bd
       0.15218186 0.2109533 -0.16576765 -0.08535456
000080 e1 36 89 be a6 c3 95 bd 93 27 9b bd 13 e2 08 bf
       -0.26799682 -0.073127076 -0.075759076 -0.5346996
000090 0b 1a 1e be ea 5e 2d bd c9 2d b4 3c d4 ee 0c bf
       -0.15439622 -0.042326845 0.021994488 -0.5505192
0000a0 6c 40 e8 bd 1c a2 27 be 7a da 33 be 49 96 45 bd
       -0.113404125 -0.16370434 -0.17563811 -0.048239026
0000b0 f3 84 16 bd c7 60 3c be 3f 53 5d bd 48 52 b2 be
       -0.036747884 -0.18396293 -0.054034468 -0.348284
0000c0 7b 4f 1b be fb 94 85 be a8 3c bd be 36 65 35 be
       -0.15167038 -0.26090226 -0.3696034 -0.1771439
0000d0 aa 6e 45 bd 3a dd fe bd 1c e9 c2 bd 6f a0 28 be
       -0.04820124 -0.12444539 -0.09517118 -0.1646745
0000e0 cd 33 15 be 4d a4 32 be c8 8a e3 bd 0b 7c af be
       -0.14570542 -0.17445488 -0.11110455 -0.34274325
0000f0 20 53 20 be 13 75 6a bd a3 98 4d be 1f 9b 2b be
       -0.1565671 -0.057240557 -0.20077758 -0.16758393
000100 78 d4 f3 bd a7 a7 6e be ad c6 e5 bd b3 56 c6 be
       -0.119057596 -0.23306142 -0.11219535 -0.3873802
000110 12 68 cd be 3e bc a6 be 85 71 77 be f4 06 74 be
       -0.40118462 -0.32565492 -0.24164398 -0.23830777
000120 2a a2 0a be 49 92 ff bd 7f 3f 67 be 23 80 8b bd
       -0.13538423 -0.124790736 -0.22582816 -0.068115495
000130 3e 6e 9c bd 26 e2 83 bd df 3c 1e be cd 4f a0 be
       -0.076382145 -0.06439619 -0.15452908 -0.31310883
000140 64 29 3f be 61 fe ed bc 8e 10 08 be 3e 85 3d be
       -0.18668133 -0.029051961 -0.13287565 -0.18507859
000150 da 0c bf bd f1 f3 46 bd 6c c5 b6 bd c6 fb 16 be
       -0.09328623 -0.048572484 -0.08924374 -0.14744481
000160 e6 a4 ba 3d 97 83 b7 be ff 2a 82 be 47 7a 68 3a
       0.09113483 -0.35842583 -0.25423428 0.00088683184
000170 9a 0a c0 bd 1d 83 c5 bd d1 a7 d8 be bf f5 11 be
       -0.09377022 -0.096441485 -0.42315534 -0.14253901
000180 ca 8f f4 bc f9 1c 96 3c 7f 7c 0f be 4f e7 32 be
       -0.02985372 0.018324362 -0.14012335 -0.1747105
000190 35 18 a4 be b4 0a f9 bd 29 ad 23 be e6 5f f9 bd
       -0.32049718 -0.121602446 -0.15984024 -0.12176494
0001a0 fd 9d ad bd 5f a4 5f be fe 6b 63 bd fd 4a 28 be
       -0.084773995 -0.21840046 -0.05552291 -0.16434856
0001b0 2b c2 01 be 17 1d 7d be 44 fa c6 bd e5 27 0f be
       -0.12671725 -0.24718128 -0.09715703 -0.13980062
0001c0 52 17 7f bd 65 a9 05 3b db 42 48 bd 5c 9d 26 be
       -0.0622781 0.0020395156 -0.048891883 -0.16270965
0001d0 04 95 bb bd f1 52 8c be 5b c9 7f be f5 47 6f bd
       -0.09159282 -0.2740703 -0.24979155 -0.058418233
0001e0 d3 26 98 bd 28 48 12 be 11 cb 2b be 59 19 cd bd
       -0.0742928 -0.14285338 -0.16776682 -0.100146
0001f0 36 47 a1 bd c5 46 63 3d 14 d1 ce bd a0 b8 c6 bd
       -0.078749105 0.055487413 -0.10098472 -0.09703183
